tsp_images/best_tsp_model.pt (torch, 439501 bytes, 16 tensors)

node_conv1.bias f4 [128]
00000000: 3844 e8ba 3d4a 8abc fead 04bd da4f 923c
00000010: c360 99bc 0bc0 e6b9 6f86 fcba b1c6 bdba
00000020: 7d32 58bd 0523 02bd cca0 0ebd f2fe 003b
00000030: 4398 eebb 0789 18b8 4bab 5b2e 0579 83b9
00000040: c47c 593b 139e d6ba b3ba cdbc 84c7 dabc
00000050: 8b95 c328 b85d 87bb 57fc 49bc 9e3e 3f20
00000060: 92a1 08bc 90a5 19bd 4b8d 84ba 4870 9bbb
00000070: 16f5 dfba c997 a3ba 8172 98b9 a607 8cb7
00000080: 18b3 2fbb d15f 8eb9 1a09 58ba 3f0d 15bc
00000090: 7e7c 05af 6283 77bc e41d 323c 4887 cfb9
000000a0: f297 95b8 10ed c1ba b827 6dbc 0f18 1cbb
000000b0: 53a2 3f2c 6c2b ca3a 1e2b e1bc dba4 e1bc
000000c0: c2a4 3cbb 3c7d 3ba0 fec2 d439 ce0b 20bc
000000d0: 9192 8cbb 2184 04bc dabb d7b7 ac9f 05bc
000000e0: 8b61 0e14 8513 a4bc 336b 73b6 6a26 2dbc
000000f0: aecd 08bb db69 0cbd d0f4 75b9 4aa2 23b5
00000100: 5a51 3ebd f5f2 ca8d 07c8 70ad 747e ffb2
00000110: 9911 17bb 33a5 cdba dedb 772a f47e 0cbb
00000120: 46a2 b33b e117 5fb0 eed0 e43c 264b 4abb
00000130: 2926 c5bc 6237 e73b df9b 1189 ccad 8ebc
00000140: 6730 44aa ae9b e88a 96f0 912d b205 0d80
00000150: 9e9d b03b 5287 d72a 0837 5abc 9c86 6506
00000160: a8cb eebc 0352 71bb 1b49 4a3c e457 44bd
00000170: b85a 9f3c a6c3 4cbb 2ac3 79ba 52fe 98b0
00000180: e977 8d81 ff0b a53b 65a5 a2bc 0daf 939e
00000190: cc70 1a3c c857 edbc f734 9e1b 92a8 35bc
000001a0: e683 19b7 3111 51bb 38e7 b5bb 6061 81ac
000001b0: 4fd9 36bb ec90 99b2 3f96 1cbc 508b b317
000001c0: 15ae f094 f805 e1bc c049 58b4 0ec9 f9ba
000001d0: 5202 f8bc 8f6f e3bb a6f5 f4aa cc38 a13c
000001e0: 5e5f bdb9 3f7a 65bc 6b07 94bc 17cf 0217
000001f0: 7544 af9c a51e 5005 21b7 82af 0c16 1fbc
-0.0017720526 -0.016881103 -0.032392494 0.017860342 -0.018722897 -0.00044012102 -0.0019266139 -0.001447877
-0.052782524 -0.03177168 -0.034821317 0.001968321 -0.0072813346 -3.636724e-05 4.9946974e-11 -0.00025076434
0.0033185938 -0.0016374014 -0.02511344 -0.026706465 2.1714203e-14 -0.004131045 -0.012328229 1.6199048e-19
-0.008339303 -0.03751141 -0.0010112909 -0.0047436096 -0.0017086591 -0.0012481149 -0.0002907701 -1.6692862e-05
-0.002680963 -0.0002715574 -0.00082411023 -0.009097396 -1.2140508e-10 -0.015107008 0.010871384 -0.0003958291
-7.133176e-05 -0.0014795382 -0.014474802 -0.002381805 2.723284e-12 0.0015424318 -0.02748638 -0.02754443
-0.0028784727 -1.5880953e-19 0.00040581072 -0.009768439 -0.004289933 -0.008088143 -2.5717472e-05 -0.0081557445
7.188405e-27 -0.020028839 -3.627222e-06 -0.010568241 -0.0020874548 -0.03428064 -0.0002345622 -6.0958394e-07
-0.0464643 -1.2507701e-30 -1.36868355e-11 -2.9743411e-08 -0.002305126 -0.0015689492 2.2014289e-13 -0.0021437975
0.005481991 -8.116086e-10 0.027931657 -0.0030867546 -0.024066048 0.0070561627 -1.752703e-33 -0.017416857
-1.742509e-13 -2.2399348e-32 1.6591433e-11 -1.195905e-39 0.005389883 3.828557e-13 -0.013318785 4.3169008e-35
-0.029149845 -0.0036822564 0.012346531 -0.04793538 0.019452438 -0.0031244545 -0.0009527678 -1.1131738e-09
-5.196728e-38 0.0050368304 -0.019854257 -1.563663e-20 0.009426307 -0.028972521 2.6173135e-22 -0.011087554
-9.150221e-06 -0.0031901116 -0.005551245 -3.6772113e-12 -0.0027900522 -1.7877447e-08 -0.009557306 1.1602771e-24
-2.430247e-26 -0.027468666 -2.0143398e-07 -0.0019057111 -0.030274544 -0.006940789 -4.351356e-13 0.019680403
-0.00036119943 -0.0140061965 -0.018069943 4.226665e-25 -1.1598224e-21 9.7857415e-36 -2.3776983e-10 -0.009709846

node_conv1.lin.weight f4 [128, 4]
00000000: e660 90bb 4d2c 37bc f3fc 6aba 6cc6 baba
00000010: 16f0 183e e0bc 6abe 12b5 033d c942 e6bb
00000020: 9a49 91bd 749c a33d cd8b 4cbd e972 663d
00000030: 2e06 1b3e 7d44 3cbe 691c 3e3d e6a0 993c
00000040: 737a 653c 37fd 053c 4c3c 833c fead a9bd
00000050: 7163 50bd 9aaf 303e bb53 c73d 4ab6 05bd
00000060: ad63 c7bc cd17 babc 0a2f efb8 0d5c e8b8
00000070: 9cb5 c1bb 1d1c 47bb 2a9e 28ba 5c27 5bba
00000080: df4e 083e 8774 33bd d05e 033d 4d61 793d
00000090: 22b7 123e 8cb7 cbbd 74c9 5fbd 2e1a 4a3d
000000a0: b3af a0bd 214b a23d 4941 59bd 1f82 00be
000000b0: db21 8e3d ec75 403c cb82 753d c5ed 173e
000000c0: 38a3 e23d 689a 233e 6fbd a8bc 5389 3cbe
000000d0: 1456 88bc 28c9 88bc 6932 10b2 caa8 4eb0
000000e0: 92a0 132e 740f eb2d ae1a a82c 6022 4aac
000000f0: 0209 7dbc fa4f 83bc 4295 b0b5 9b6a 1bb6
00000100: 132a 8ebd 4820 d03d eb08 bcbd 32e6 bcbd
00000110: 1997 ef3d 9c2a 38be 60d5 133b 5a58 683c
00000120: 0c49 803c a76f 213d 3eeb f3bd 31e3 90bc
00000130: 3389 babc de0d 2a3c 44f2 f93c 7264 bc3d
00000140: 76d7 b2aa 9b4f 9828 a272 9627 9e26 85a6
00000150: 2ef6 95bb 37fa 47bb 1ba8 cbba 6292 ebb9
00000160: 712b 05be aa71 b53d 3a90 e1bd 5c04 7abd
00000170: 9c52 96bc 65fa 70bc cebb f71e 26dc 731e
00000180: ce2a 063e cf5e 2d3e 1f68 b83d 91aa 11be
00000190: f4cf 22be 67f7 293e bc00 343d c579 45bc
000001a0: d064 84bb e50a 0cbc 8168 c3ba 6df7 1bbb
000001b0: 8a9a 8ebc 9f7b 5abc d596 aaba 0a1b 9eba
000001c0: b0da 7abb 5324 99bb ef9d 7aba b6d9 b5ba
000001d0: 4d94 02bd 5c7f d1bc 99d0 26b9 6e57 38b8
000001e0: 5782 843d bb96 183e d468 8ebd e2cf cbbd
000001f0: 771f 8abc 88ea 65bc a364 22b5 b51b d0ae
00000200: e959 f3bb 5262 8cbc 941f f0b9 bd88 abba
00000210: 0e80 82bc d908 e0bb 8f9a 4db5 7ae0 b4b4
00000220: 3cf2 c3bb b582 91bb 9caa 8a39 45f9 c3ba
00000230: a2c8 133e 5387 dabc 1c23 b33b 006e bb3d
00000240: b839 93bc 9a81 9bbc 64d3 5811 b670 07a4
00000250: da87 0cbd b986 aebc 9bf1 29bc 07bb 06bc
00000260: 7780 8d3d e710 f3bb 9826 8f3d d34f 70bc
00000270: 4b44 d03d f0f9 20be 1eb5 f0b9 b050 3f39
00000280: 1150 3f3e 9f21 a23d 5286 23be 1a41 f33d
00000290: 9aa4 bcbc e959 c5bc 5d3c 2bb9 6c63 beb8
000002a0: 01bb 043e 20d8 d63b 7e39 f9bd f136 0e3d
000002b0: b877 b6bd b82f 2d3e 553c 24be a81b 97bd
000002c0: 576f dfbb 0f2a 09bc 4e37 edaa 8c3d 9aab
000002d0: 0d43 383c 5b5b 373e 55bd 4a3c e35c 933d
000002e0: de36 073e 444a 0b3e 6061 0bbe dd0d 053e
000002f0: ac93 e63d ced5 e0bd 397c afbd 87ce 0abe
00000300: f800 b3bc 2fa2 b2bc c2e5 e4ba 68f5 00bb
00000310: d13c 8cb8 468a 89b8 803f 529f cffb 529f
00000320: 7f5e 99bc 9cd1 8cbc 0e5c 13b8 09b6 8e37
00000330: efce 94bb ea59 20bc d8d9 cabb 77f9 08bc
00000340: 8998 6fbd f066 e13d bd81 603d a7f0 f43d
00000350: e5cb aabd 75a9 753d d2a0 b93c 3c4e a9bd
00000360: dd16 0bbc 54d6 07bc 1f2b 1d38 e853 02b7
00000370: 0ff1 06be a48e 6e3d ae83 2ebb 65f8 91bb
00000380: 9229 30bc 748a 47bc 7410 ba10 b047 af91
00000390: e478 b13d d5db 20bc 338a 983c d104 f33d
000003a0: 9d5f 2ebc 96fb d1bb cf16 cbb1 da29 c4b1
000003b0: b4ee 03be 0ad3 123e 291a 3a3d 615f 3e3d
000003c0: f190 8dbb 0537 e039 6f30 3f3b 025c 72ba
000003d0: bc68 c1bc b067 a53d 39e2 0abe 07d8 103e
000003e0: 7351 7ebc 7664 77bc d5e0 24b6 0abe 54b7
000003f0: 2f07 aebc 5b2b b4bc 9544 e033 9531 dfb4
-0.0044060824 -0.011179996 -0.0008964084 -0.0014249808 0.14935336 -0.22923613 0.032155104 -0.0070270044
-0.070941165 0.079888254 -0.049938012 0.05626193 0.15139076 -0.18385501 0.046413813 0.01875348
0.014006245 0.008178047 0.016019963 -0.082851395 -0.050876085 0.17254487 0.09732767 -0.032644548
-0.024339521 -0.022716427 -0.0001140517 -0.00011079768 -0.005911542 -0.0030381747 -0.00064322597 -0.0008360052
0.13311337 -0.0438123 0.032072842 0.06088381 0.14327672 -0.09947118 -0.05463548 0.049341373
-0.07846012 0.07924486 -0.053040776 -0.12549637 0.06940051 0.011746865 0.059939187 0.14836796
0.11066288 0.1597687 -0.020598141 -0.1841176 -0.016642608 -0.016697481 -8.393365e-09 -7.5182227e-10
3.3566545e-11 2.672327e-11 4.7778092e-12 -2.8725008e-12 -0.015444042 -0.016029347 -1.3156462e-06 -2.3158852e-06
-0.06941619 0.10162407 -0.091813885 -0.09223594 0.116987415 -0.17985004 0.0022557601 0.014181221
0.015659831 0.03941312 -0.11910103 -0.017686458 -0.0227705 0.010379283 0.030511029 0.09198846
-3.1768658e-13 1.6909913e-14 4.175765e-15 -9.239196e-16 -0.004576466 -0.003051413 -0.001553777 -0.00044931757
-0.13004853 0.0885957 -0.11013837 -0.061039314 -0.018349938 -0.014708136 2.6229816e-20 1.29098385e-20
0.13102266 0.16930698 0.090042345 -0.14225222 -0.1589964 0.16598283 0.043946013 -0.012052958
-0.004040338 -0.008547519 -0.0014908464 -0.00237986 -0.017407674 -0.013335138 -0.0013014922 -0.0012062502
-0.003827732 -0.0046735196 -0.0009560277 -0.0013874087 -0.031879712 -0.025573425 -0.00015908702 -4.3950444e-05
0.06470173 0.14901249 -0.06953588 -0.0995176 -0.016860707 -0.014032967 -6.049615e-07 -9.463667e-11
-0.0074264896 -0.017136727 -0.00045799895 -0.0013087016 -0.015930202 -0.006836992 -7.6593363e-07 -3.369094e-07
-0.0059798043 -0.0044406303 0.00026448525 -0.0014951607 0.14432004 -0.026675856 0.005466832 0.0915184
-0.017971858 -0.018982697 1.7104535e-28 -2.936893e-17 -0.034309246 -0.021304475 -0.010372545 -0.008223302
0.06909268 -0.0074177864 0.06989783 -0.014667469 0.10169276 -0.15720344 -0.0004591131 0.00018245238
0.18682887 0.07916569 -0.15969208 0.118776515 -0.023027707 -0.024090724 -0.00016330318 -9.078425e-05
0.12961961 0.006556526 -0.12169169 0.034720365 -0.08909553 0.16912735 -0.1603864 -0.07378322
-0.0068186927 -0.008371844 -4.2138032e-13 -1.0959441e-12 0.011246455 0.17905943 0.012374242 0.07195451
0.13204524 0.13602549 -0.13611364 0.1299357 0.11258635 -0.1097828 -0.085686155 -0.13555346
-0.021851048 -0.02180585 -0.0017463493 -0.0019677524 -6.687048e-05 -6.5584245e-05 -4.4521756e-20 -4.467752e-20
-0.018721817 -0.017189793 -3.5133264e-05 1.7012486e-05 -0.00454127 -0.009787062 -0.00619052 -0.008360258
-0.05849508 0.11005962 0.054811228 0.11959963 -0.08339671 0.05997606 0.022659693 -0.08266875
-0.008489338 -0.008290846 3.7471877e-05 -7.76814e-06 -0.13177894 0.0582415 -0.002662878 -0.0044546598
-0.010752099 -0.012179006 7.3389414e-29 -2.7654313e-28 0.08665636 -0.009818037 0.018620586 0.11866153
-0.010642913 -0.006408165 -5.9106706e-09 -5.7091087e-09 -0.12884027 0.14338318 0.045435105 0.04647768
-0.004320257 0.00042765602 0.0029173156 -0.00092452776 -0.023609512 0.080764174 -0.1356286 0.14144908
-0.015522349 -0.015099635 -2.4568774e-06 -1.2680432e-05 -0.02124366 -0.02199333 1.0443288e-07 -4.1573063e-07

node_convs.0.bias f4 [128]
00000000: 57ba 69bc 03a4 2ebc bc92 943c 9c49 b33c
00000010: d187 2e81 0b1e 94bc d157 7a3c 2789 f7b9
00000020: 8fde 643d 7362 23bc d9b0 b53a 34e2 7eba
00000030: 4d9f a3bc c1e1 04ba 2cdd 8dad 6ffa 1bbc
00000040: 7d87 8abb a409 a5bb bbee 1eba b1c9 b83c
00000050: 8ddd 853a 0592 b13c a672 04bc 7725 5cbc
00000060: 0f22 4d3c 3fd8 1b3d d763 2bbc c062 c23c
00000070: ac14 3d3d 4d8d 93bc e2aa d43c 6af2 06ba
00000080: d397 24ba e179 b40d 6768 873c 23ab 6ebc
00000090: 032d c0bc d3dc 78bc 2a55 21ba 4110 bd3c
000000a0: 5467 78ba 9523 1fb4 a620 cabb abc2 d4ba
000000b0: a6ad 1301 bff1 c3bc 23ae 1bbc 9b28 073b
000000c0: 262c 2fa6 3e7c 83bb 60a4 4bb9 a861 4d3c
000000d0: ead8 a7bc fbff 633b 91c2 86b3 8bad 73bc
000000e0: aee0 89b9 853f 963c bd96 9ebc e7b5 7db5
000000f0: 4680 bcbc ee80 2834 4338 21bb fe34 4fbc
00000100: 0b3c 49b8 1b72 babb 040e babb 171f 9cbb
00000110: 0261 15bc d792 8f00 ebe0 e83b 7afc 483b
00000120: d644 dcbb 7ceb 8ebb a732 9f3b ca30 a001
00000130: fcff 97bb 783b a5bc c9f9 cbbb f874 b8ba
00000140: 1422 52bc bae0 433c 7beb f1bc 66e2 86b2
00000150: 8216 d6b9 4d4a 2a13 425a adba a641 b2bb
00000160: c97d f33c 1d79 8d3d 8940 1fbc ac6b 129e
00000170: 8ad7 4f3b 9010 28ba 7325 3ab2 c8a3 d3bc
00000180: 46a6 cebb 241b a23c ef12 d9b9 a739 923c
00000190: 0b85 da3a f1d5 15bc c52b a3b1 8db7 4ba2
000001a0: b78b 8ebc fe61 5c3d a716 623d d93e 52b8
000001b0: bccd 34bc fe92 1cbc 7449 6cba f5e4 96ba
000001c0: face 7ebc 3664 be3c f46d 9b8d 4fde 9c3c
000001d0: bfe7 ef3c 19a3 d9bb 780d 04b9 f4cf 21bc
000001e0: f536 9db6 ef77 28bb 7066 1b3b a28a a58f
000001f0: ebca 813c 3cfa 83bb 10fc 203c 2c35 f1bc
-0.014265618 -0.010659221 0.018136375 0.021885686 -3.2056196e-38 -0.018080732 0.015279726 -0.00047213698
0.05587631 -0.009972203 0.0013861909 -0.0009723038 -0.019973421 -0.00050690403 -1.6128064e-11 -0.009520157
-0.0042275772 -0.0050365496 -0.00060627953 0.022557111 0.0010213122 0.021676073 -0.008083975 -0.013436667
0.012520327 0.038048025 -0.010460815 0.023728728 0.046162292 -0.018011713 0.02596039 -0.0005147817
-0.0006278727 1.1122698e-30 0.016529275 -0.014567169 -0.023458963 -0.015189367 -0.0006154353 0.02307904
-0.00094758463 -1.4820974e-07 -0.006168443 -0.0016232332 2.7124223e-38 -0.023918984 -0.009501967 0.0020623568
-6.0775154e-16 -0.0040126136 -0.00019420823 0.01253549 -0.020489175 0.0034790027 -6.275253e-08 -0.014872919
-0.00026298076 0.018340835 -0.019358987 -9.451455e-07 -0.023010384 1.5693124e-07 -0.0024600185 -0.012646912
-4.7978054e-05 -0.005689872 -0.0056779403 -0.0047644484 -0.009117367 1.3185152e-38 0.0071068904 0.0030668066
-0.006722073 -0.004361568 0.004858333 5.8844726e-38 -0.00463867 -0.020169958 -0.006224845 -0.0014072945
-0.012825508 0.011955434 -0.029531231 -1.5702607e-08 -0.0004083403 2.149365e-27 -0.0013225751 -0.005439955
0.029723065 0.06907866 -0.009719976 -7.751442e-21 0.0031714165 -0.00064111594 -1.083514e-08 -0.025834933
-0.0063064424 0.019788332 -0.00041403572 0.017849756 0.001667173 -0.009145246 -4.7489004e-09 -2.7608801e-18
-0.017400606 0.05380439 0.055197384 -5.0126433e-05 -0.011035379 -0.00955653 -0.0009013631 -0.0011512326
-0.015552277 0.023241144 -9.579083e-31 0.019148974 0.02928531 -0.006641757 -0.00012593518 -0.00987624
-4.6853625e-06 -0.0025706252 0.002371218 -1.6323656e-29 0.01584383 -0.004027633 0.009825721 -0.0294443

node_convs.0.lin.weight f4 [128, 128]
00000000: 274d 7c38 a0b6 2e3b f975 ebbd d683 533d
00000010: 8e50 86bc 2a39 15be 270a 623b 60b4 cd80
00000020: ebc1 70bd 4b0a ea3d 3b86 a7bd 656e babd
00000030: 59bb 90bd 3b80 49ab 18d2 3b97 f409 ca80
00000040: 1d61 15be e1e8 3db9 4751 c6bd 5926 e2bd
00000050: a485 ef0c 4e42 f138 4493 d300 6439 b715
00000060: baea 84bc 0bbc f7bd aee6 f0b8 73a4 e81a
00000070: e63d 9f81 a878 c1bc 3af5 db3d 6782 8900
00000080: 181d 9737 3394 a111 8d46 98b0 5c79 4abd
00000090: ab83 4f01 7ec9 0221 3b33 efbc 4a33 ff13
000000a0: a9bd a33c ecd6 b981 017e 06bd 8dc8 713c
000000b0: 85c7 48a0 92cd 1abd e504 023e 3fc0 223d
000000c0: 38fb 9d9e f222 8801 6a22 d013 e5e4 0c3b
000000d0: 182e 0cbe 3b51 dd80 95c2 7e81 06fe 9701
000000e0: ab57 c491 5304 953c 8ec9 2e00 aff1 b1bd
000000f0: 6ee1 8c38 7948 03be 1634 c39f 4936 5c00
00000100: 1560 efbd fa7e 7b01 bf3a 3420 09f6 8701
00000110: 5852 5092 a530 0cbe 22b1 3d28 04d2 ae01
00000120: b3e5 c0bc 5516 0c8e fcd3 d8bd 2820 c6bd
00000130: 4506 2cbb 678f 2c3d 48e4 5481 9340 ce3d
00000140: b20e 6f80 fe23 4981 3afb c99d 5403 7f80
00000150: 2dc9 a1bd edf3 dc8b aaf1 883b 61a1 4500
00000160: 681d 083d 926d 7b3c c168 a13d d812 d3bd
00000170: cfa9 13be d9bd c3bc d938 6501 28d3 4b01
00000180: 93fd 5a01 a888 073e 0891 08bd 422f 4f01
00000190: 015a dbbd 4f46 26bc 9521 230b 5b7d d03c
000001a0: 5998 0100 706c 6681 589c 7400 6b54 a09d
000001b0: 80ca 0d93 92cc 4700 5144 e03d 68b8 9f80
000001c0: 0cf5 ae01 ba0d 0abe 45cf ed80 a4d9 5581
000001d0: 3f61 ef3d 50ec 8d3b 6e50 4000 12f5 3d3d
000001e0: 9676 0336 8975 7624 f174 243d 324f 3a80
000001f0: a01b 4c80 c657 9501 3c9c 0681 50ea 44a1
00000200: 0e1b 6580 646e a001 8da5 b43b 3de1 71bb
00000210: 0403 bbbd 8539 2d3d 3ec2 5981 448f c280
00000220: 17d2 29bd c0d0 56bc 0f6e 7dbd c4f6 18be
00000230: e404 bc3c 8867 7581 e8af 6b01 2dc1 5a12
00000240: c49d a3bd f806 6400 2b12 12be 6a2f 77bd
00000250: 3f53 7d8a b09d 0681 2208 4c3d 75a3 5101
00000260: 4c75 c83c 0398 b13d 1de7 0f0c 12ed 1c01
00000270: fa07 0e80 d2db 3b80 6148 193d 4084 9780
00000280: 5c20 7000 171e d780 ccc8 b1ae 2d91 f9bd
00000290: 5463 9200 ba20 4901 e454 d1bc 0011 b880
000002a0: 2886 a5bc 5824 ab81 801a 12be d52a 09bd
000002b0: 1781 5201 c196 f63d b08b 9e3d b52f 0fbd
000002c0: 8e15 2e00 6062 c180 bc9e e000 b6f8 39b9
000002d0: 431b da3d 13bc fe3c 9f20 a401 004b 4001
000002e0: e39e 9a81 b072 08be 0ae8 6401 ed2c 8f3d
000002f0: 7ca8 e8b5 44fb 26bd 5982 3301 9880 5101
00000300: f9b9 8dbc dcfc af01 dd57 5f80 ae10 0581
00000310: c7d8 303c 117f 463c ead1 8b01 8c2a fcb8
00000320: 272d 873d cef4 0901 8ed5 12bd c82d d2bd
00000330: c19c cebd 1eb3 23be e0dd c700 120a b13c
00000340: 0922 3c01 76e7 9381 5493 7381 ebdb 5401
00000350: 84c6 073e 6310 4e00 6e72 d93d aab5 1a02
00000360: 5da0 09bc c214 3d00 dda6 d63c e9aa 973d
00000370: 91e5 4c3c 69df 79bd dacf 1281 612e 9080
00000380: 6033 9001 9787 1bbd 9d54 cbbc 524a 5f81
00000390: d2bc 5e3d e034 fa3c 99f1 6401 d914 e53c
000003a0: 43b2 2d1d 4e4e 7081 bf75 6ebc 74e0 7180
000003b0: 3c24 6d00 7e84 ab01 57ce b2bb 909a 2a01
000003c0: b06a 9c81 37a4 23be c602 4f81 0424 c680
000003d0: 04c3 99bc b03e b901 6623 6981 16bd 7d3d
000003e0: d397 4c01 a417 5cb9 29b4 00ba 26fd ea80
000003f0: a852 4b00 191d 8201 4fdb ab81 6818 7d81
6.0153336e-05 0.0026659146 -0.11497111 0.0516394 -0.016395833 -0.14572588 0.0034490915 -1.8890983e-38
-0.058778685 0.114277445 -0.08179899 -0.09103087 -0.07066984 -7.15875e-13 -6.0688134e-25 -1.8554341e-38
-0.14587827 -0.00018111199 -0.09683471 -0.110424705 3.6904213e-31 0.00011504126 1.9430119e-38 7.400366e-26
-0.016225208 -0.12096413 -0.00011487059 9.621863e-23 -5.8496195e-38 -0.023617104 0.10740133 1.2628243e-38
1.801415e-05 2.5492656e-28 -1.1079507e-09 -0.049432144 3.8114363e-38 4.4312386e-19 -0.029199233 6.4421625e-27
0.019987898 -6.8266665e-38 -0.03283501 0.014757288 -1.7006674e-19 -0.037793703 0.1269718 0.03973412
-1.6726923e-20 5.0008654e-38 5.2540517e-27 0.0021498736 -0.13689458 -2.0324785e-38 -4.6792038e-38 5.5833145e-38
-3.0977377e-28 0.018190539 4.296737e-39 -0.086886756 6.71771e-05 -0.12820615 -8.267188e-20 8.46834e-39
-0.11688248 4.619252e-38 1.526603e-19 4.994421e-38 -6.5734724e-28 -0.13690431 1.0530017e-14 6.4218863e-38
-0.02354703 -1.7267085e-30 -0.10587308 -0.09674102 -0.0026248854 0.042128947 -3.9102034e-38 0.1007091
-1.0199012e-38 -3.6943693e-38 -5.346402e-21 -1.1664302e-38 -0.07899699 -8.5107936e-32 0.004179199 6.394541e-39
0.03323117 0.015345948 0.07881308 -0.103063285 -0.14420246 -0.023894237 4.2101443e-38 3.743671e-38
4.0222207e-38 0.13235724 -0.033341438 3.80538e-38 -0.10710526 -0.010148599 3.1417922e-32 0.0254504
1.46488e-40 -4.2322128e-38 1.0709003e-38 -4.2438933e-21 -1.7896542e-27 6.593706e-39 0.1095053 -1.4667996e-38
6.426913e-38 -0.13481799 -2.1839367e-38 -3.927807e-38 0.1168847 0.004331149 5.906324e-39 0.046376295
1.9589547e-06 5.3442303e-17 0.040150587 -5.354869e-39 -6.989408e-39 5.4859904e-38 -2.4724006e-38 -6.6717493e-19
-9.28509e-39 5.893312e-38 0.0055128993 -0.0036907934 -0.091314346 0.042291183 -3.9995967e-38 -1.786748e-38
-0.041460123 -0.013111293 -0.06187254 -0.14937884 0.02295155 -4.5073673e-38 4.328889e-38 6.902678e-28
-0.07989076 9.18605e-39 -0.14264743 -0.060347952 -1.2197164e-32 -2.4725048e-38 0.049812444 3.8504512e-38
0.024469994 0.08671572 1.1085867e-31 2.8822764e-38 -1.288558e-39 -5.497151e-39 0.03742254 -1.3914602e-38
1.0297184e-38 -1.9755426e-38 -8.084697e-11 -0.12185893 1.3443615e-38 3.694135e-38 -0.025553174 -1.690383e-38
-0.020205572 -6.286763e-38 -0.14267921 -0.033488113 3.8663526e-38 0.12040473 0.07741487 -0.034957606
4.232165e-39 -1.7759541e-38 2.0628094e-38 -0.00017735627 0.10649731 0.03109554 6.0290894e-38 3.531864e-38
-5.6798657e-38 -0.13325 4.2043466e-38 0.06990991 -1.7334382e-06 -0.04076697 3.2970627e-38 3.84795e-38
-0.017300593 6.464768e-38 -8.755892e-39 -2.444021e-38 0.010793871 0.012115256 5.136175e-38 -0.00012024221
0.06600409 2.5338565e-38 -0.035848193 -0.10262638 -0.10088492 -0.15986297 1.8354857e-38 0.021611247
3.4554566e-38 -5.43314e-38 -4.4737754e-38 3.9096034e-38 0.13259321 7.169047e-39 0.10617529 1.1366268e-37
-0.00840005 5.609412e-39 0.026202613 0.074056454 0.012505905 -0.061004076 -2.696509e-38 -1.3240949e-38
5.2970965e-38 -0.037971105 -0.02482062 -4.1011953e-38 0.05437929 0.03054279 4.2050324e-38 0.027964042
2.2988519e-21 -4.413722e-38 -0.01455444 -1.045793e-38 1.0023068e-38 6.3005596e-38 -0.0054567265 3.1334962e-38
-5.745844e-38 -0.15980612 -3.8021885e-38 -1.8196348e-38 -0.018769749 6.804822e-38 -4.2820738e-38 0.061947905
3.757781e-38 -0.00020989642 -0.00049096585 -2.1580319e-38 6.917314e-39 4.779621e-38 -6.313017e-38 -4.6486272e-38

node_conv_final.bias f4 [128]
00000000: d735 2bbc a8bb 36bc 0ede 92bb 74bb 33bb
00000010: 90ac 29bc fa71 bcbb 7838 b63c cb1b 05b9
00000020: 9e7f c6bc 0976 be3c 0074 9bbb ee39 7c3d
00000030: 3aa5 8301 f33c 71bc c197 21bc 2e1c 0438
00000040: 3451 e2ba df20 03bc def0 efbc eff3 b6bb
00000050: 2526 1abc 3c38 2202 180a 14bc 7ee6 69bb
00000060: cb85 39bc e5cd 493d a07b 893b eb4e 19bc
00000070: 7160 e6b6 475c 8c3d 791e 6abc 2925 0fbc
00000080: edce 50bc ff58 51ab 9c63 4a3d 7bee b1b2
00000090: 08c0 183d 1adc 8281 fd54 05bb 7197 903d
000000a0: fe76 873d f65b 2dbb a97e aaae 5949 c5bb
000000b0: 456d 19bc b9ce 40bc 776b ecbb 563b a1ba
000000c0: 9c80 15ba 87f2 18bc 7c26 9eba 6dc6 84bb
000000d0: 7fab 893b c322 9dbb 34d6 f9bb ac64 94bc
000000e0: 97b0 83bb e5b6 a2a5 0fa4 953c 7954 70bb
000000f0: 10a8 a006 ea3a f6b9 f4aa a9bb fb98 883d
00000100: 6d43 e2bc 4a8a 26bc 4f43 a3a7 f80b 7b3d
00000110: 0da7 b53c 6890 f3ba 04e2 2e3b 7ce3 9c3c
00000120: 6db0 33bc 0c46 a83d 75de a8bb d714 58bc
00000130: 37f8 1abc 60ad 233c 4c7f 543c b7af e13b
00000140: fbd6 aebc 5544 7e3c 1d13 5cb1 fb71 ebbb
00000150: 79a7 86bc f47d 0dbd d3e3 a03d b919 c83c
00000160: fcbd 96bc e1f5 5cbc 73d1 2bbb 3fdf 8b3d
00000170: 795a ae3d 8a84 0dad 33b1 76aa 2240 2e90
00000180: 0b8b cabb 976d 7cbc b028 9dbb 1316 6dbc
00000190: 66fc 86bc 5e63 03bc 76c0 3c3d ff27 0abd
000001a0: 92e9 953b 7190 efbb d967 0abc f248 9a3c
000001b0: 20f9 a63d 8b91 32bc a390 89bb 83e4 78ba
000001c0: 4c85 e137 0785 e5b9 92ee 13bc b431 e8bb
000001d0: f1e5 4f3b 2f45 833d 736a 0cbc 6ffc 6fbc
000001e0: 3e45 22bc 67f6 283d 6851 f4bb 08c3 b7bb
000001f0: 0e98 9abc 82f4 6bbc d7b8 83bc dedd ff3c
-0.010449848 -0.011153139 -0.0044820374 -0.0027424963 -0.0103560835 -0.0057508918 0.022243723 -0.00012694222
-0.024230774 0.023249643 -0.004744053 0.061578684 4.835889e-38 -0.014724004 -0.009862841 3.1497497e-05
-0.0017266632 -0.008003443 -0.02928966 -0.0055832784 -0.009408508 1.1918019e-37 -0.00903561 -0.0035690363
-0.011323403 0.049268622 0.0041956455 -0.009357194 -6.8657614e-06 0.06853538 -0.014289492 -0.008736887
-0.012744647 -7.4375223e-13 0.0494114 -2.071396e-08 0.03729251 -4.807029e-38 -0.0020344846 0.07060135
0.06614493 -0.0026452518 -7.753204e-11 -0.0060207066 -0.009364431 -0.0117680365 -0.0072149592 -0.0012301009
-0.0005703063 -0.009335167 -0.0012065913 -0.0040519745 0.004201352 -0.0047954037 -0.007624412 -0.01811441
-0.004018854 -2.8226454e-16 0.018266706 -0.0036671443 6.0432256e-35 -0.0004696467 -0.00517785 0.06669804
-0.027620042 -0.010164807 -4.5314564e-15 0.06129071 0.022174383 -0.0018582465 0.0026685009 0.019151442
-0.010967356 0.082164854 -0.005153472 -0.013188562 -0.009458593 0.009990066 0.012969803 0.006887402
-0.021342745 0.015519221 -3.2025078e-09 -0.0071852184 -0.016437279 -0.034543946 0.07855954 0.024426328
-0.018401138 -0.0134863565 -0.002621737 0.0682969 0.0851335 -8.044352e-12 -2.1910667e-13 -3.4364855e-29
-0.006181126 -0.015406988 -0.00479611 -0.014470595 -0.016477775 -0.008019296 0.046081983 -0.03372955
0.004574963 -0.00731092 -0.008447611 0.018833611 0.081529856 -0.010898958 -0.0041981502 -0.00094945
2.6884161e-05 -0.00043777397 -0.009029048 -0.007086003 0.003172275 0.0640968 -0.008570301 -0.014647587
-0.009904204 0.041250613 -0.0074559934 -0.0056079663 -0.018871333 -0.014401557 -0.01607935 0.031233724

node_conv_final.lin.weight f4 [128, 128]
00000000: 7f88 273d eb8c d8bd 06ec b73b c476 e93d
00000010: f723 3d80 20eb 973a da16 c23d 829d 8281
00000020: 78c2 18be 6e82 17bc 4e45 8fbd ecde db80
00000030: edaa 973d 7d16 af3a 812b 5200 e280 c3bd
00000040: 78ab 3e01 3032 83bc 3ee1 a701 0d44 eabc
00000050: 30dd ffbd 3c64 fdbc a39a 0f3e 3757 d13d
00000060: 10d4 59bc 00b4 ffbd b018 f73c 881e c9bd
00000070: e6d0 14be 9b7a a1bd 8fed e2bd 971c 9c81
00000080: eff6 b881 c06c 1e01 9436 0a3c 0af7 b4bd
00000090: 60c8 99bd e36f b5bb 8a9d 8581 a4c0 8f3d
000000a0: df58 81b9 d9b9 0d81 bf35 47bc a749 61bd
000000b0: 2450 3301 9cf3 4abd 1bb1 6ebb 88b2 033d
000000c0: cce2 ba80 6452 3f81 f627 9a81 87bd d33d
000000d0: f8ea 2fbc 202b f080 3cf2 4981 2176 12be
000000e0: 1d81 44b6 b138 0b3e 8b68 6b3c bcc1 520b
000000f0: b3c9 16be f348 9681 ac93 dab9 f0c1 1cbd
00000100: 402a 8f81 6fa6 edbd 2083 023d 84c2 9181
00000110: cacd 71bd 1857 b700 68cd 143d 5788 2600
00000120: 8554 833d d5b2 933c 81c1 72bd 6e8b 8a80
00000130: e61d 453b d61a 9d3d bd44 1b3a 8a8f d5b9
00000140: c16c 4f3c 1ade 02be 8efc e5bd 9a3c 0001
00000150: eb1c 0681 b833 ab00 2909 2dbb 796d 463d
00000160: a21a 8e3c 04a5 56bd 1756 ca3d c1f1 4c80
00000170: 48ae 2180 afd1 f800 8a1e bd80 93c3 a93c
00000180: f1ef e83d 33cb b63d c0e6 7b00 891a 8a3d
00000190: 2da3 4abd 70de 8abd c258 de80 fb78 2981
000001a0: 65c5 a63d 2e25 373d 1734 f33d a0c0 7b01
000001b0: 5945 8f3d 1f6b 54bd 86e9 6901 967d 87b2
000001c0: 6fa6 c53d 07e4 3b3c d805 8e81 32f1 533d
000001d0: 0e57 b7bd 6484 4981 07a1 f4ba 0b06 82bd
000001e0: d625 dc80 e910 ceba 2cf6 9ebc 6ea6 3d81
000001f0: 591b aa3d 2c18 4a01 3962 89bd 00a6 05bd
00000200: ada4 debc 8adb 68b9 c0d6 d73d e23b f0bd
00000210: 3e6e 7300 3f2d b6bd 20bb ffbd 0c89 eb36
00000220: b4b0 c93c 0e0e 703d 8414 683d 589c 0492
00000230: 9299 133d 3010 7981 c2c7 2901 69c4 e2bd
00000240: 9761 6600 0207 56bc 9041 0981 ea7a dd3d
00000250: 8f3b 2a3d 07ab 003e 131b aabd 98b2 e13d
00000260: decd 0bbe de75 f3bd 31f5 a43d 39f1 a3bc
00000270: 5ab0 4d3b d231 93bd 4ff6 fe3c e0ee 1381
00000280: 09da 3e18 668b 9601 d1d1 b4bc 5122 87bd
00000290: d8b9 d9bd 41f9 db3c 408e 8701 8f9b 06be
000002a0: a46c e933 eccc 9501 719e b33d a942 d4bd
000002b0: 3084 9400 89bc b9bd df25 a43d 68a4 8dbd
000002c0: d01f 1b81 21cc 4801 fb1b b680 4646 7a3d
000002d0: 77bd 003e d6c5 63bc b95f 9481 2376 fe3d
000002e0: f78e 8800 50e5 fb3d a7b8 04be 50ee 7900
000002f0: 4888 f93d 8dc2 8281 3097 6300 a255 4d3d
00000300: d406 6f81 2224 763d f796 9d3c 8b81 c03c
00000310: b49b e1bc 2574 5581 a537 0dbe 39f2 eabb
00000320: 269c 56bd b14f 67ad 1cab c6bd e4f1 8b81
00000330: a66b 0a3b bf9d 0fbe ad46 7880 a17d bd80
00000340: b0ad ccbd f7c0 3e3d 5763 54bd 2e8c 4381
00000350: 128a b3b6 45dc 0e80 3f6d a7bb 7319 66ba
00000360: f964 cfbd 332b c83a 0f90 403d 2e6f 6301
00000370: e9c6 d43c ddae 94a4 2ee8 3192 f051 bd3b
00000380: 71a1 c83c 3c0e c93d 1a4d bd81 1156 9fbd
00000390: d315 51bd a65e 0ebd eccf 6681 9d43 7400
000003a0: 5141 223d 55ef 82bc 22b0 ac3d b852 6600
000003b0: a5ea 5c3d 9352 873d 40ba 9dbb a855 6e00
000003c0: d44d 5f3d 1c45 80bd 82ff 9101 2267 843d
000003d0: ce1e 8abc 4d7b 19bd b664 9a01 4d37 6f3d
000003e0: 5052 d800 3dbf 97bd a9dc 9abd 74f7 0180
000003f0: 75f4 dabb 3cac c739 08f4 743b e3e2 45bc
0.040901657 -0.10573753 0.005612853 0.11399606 -5.614867e-39 0.0011590458 0.09477015 -4.798047e-38
-0.14917934 -0.009247405 -0.06995641 -2.0191943e-38 0.074056484 0.0013358142 7.546117e-39 -0.09546067
3.502051e-38 -0.016015142 6.166932e-38 -0.028596902 -0.1249336 -0.030931585 0.14023833 0.10221713
-0.013295189 -0.12485504 0.03016314 -0.098202765 -0.14532813 -0.07884713 -0.11080467 -5.7346374e-38
-6.794526e-38 2.909804e-38 0.008435864 -0.088361815 -0.075089216 -0.0055370196 -4.908254e-38 0.07019165
-0.00024671011 -2.603095e-38 -0.01215881 -0.05500188 3.2934606e-38 -0.04954873 -0.003642148 0.032152683
-1.7162762e-38 -3.5140272e-38 -5.6628007e-38 0.10338884 -0.010737173 -2.205599e-38 -3.7091664e-38 -0.14302875
-2.928143e-06 0.13595845 0.014368187 4.0590278e-32 -0.1472538 -5.5205975e-38 -0.00041690224 -0.03827089
-5.259053e-38 -0.1160401 0.03186333 -5.3543704e-38 -0.059034146 1.6837139e-38 0.036328703 3.538658e-39
0.06412605 0.01802961 -0.05926657 -1.2723316e-38 0.0030077635 0.07671134 0.00059230236 -0.0004073347
0.012660206 -0.12780038 -0.112298116 2.3553367e-38 -2.463266e-38 1.5722423e-38 -0.0026403165 0.048444245
0.017346684 -0.052403465 0.098797016 -7.066223e-39 -3.093092e-39 2.2850423e-38 -1.7367864e-38 0.02072314
0.1137389 0.08925476 1.1378544e-38 0.067433424 -0.049472023 -0.06780708 -2.041932e-38 -3.1127197e-38
0.08143119 0.04471319 0.1187517 4.623962e-38 0.06995649 -0.05185997 4.2962886e-38 -1.5773178e-08
0.09650885 0.01146794 -5.2170947e-38 0.051743694 -0.08952151 -3.7012855e-38 -0.0018663713 -0.06348809
-2.0217382e-38 -0.0015721592 -0.019404493 -3.4833225e-38 0.083059974 3.7118883e-38 -0.067081876 -0.032629013
-0.027178133 -0.00022207029 0.10539007 -0.11730172 1.060063e-38 -0.08895349 -0.12486863 7.0195e-06
0.024620391 0.058607154 0.05666019 -4.1844564e-28 0.036035128 -4.574569e-38 3.1183717e-38 -0.110726185
9.402229e-39 -0.013063194 -2.5209965e-38 0.108144596 0.041560706 0.12565242 -0.08305945 0.11020392
-0.13652751 -0.11887716 0.08054579 -0.020012485 0.0031385631 -0.07187237 0.031123308 -2.717102e-38
2.4667004e-24 5.5301325e-38 -0.022072705 -0.06598342 -0.1063115 0.026852252 4.9795287e-38 -0.13145278
1.08696696e-07 5.5028004e-38 0.08770455 -0.10364277 1.3639073e-38 -0.09069163 0.08015036 -0.06916124
-2.8491828e-38 3.6880654e-38 -1.6724098e-38 0.061102174 0.12572275 -0.013902148 -5.450397e-38 0.124248765
1.2540914e-38 0.12299597 -0.12961064 1.1197585e-38 0.12184197 -4.8033625e-38 9.14595e-39 0.050130494
-4.3902266e-38 0.060093053 0.019237025 0.02349927 -0.027540065 -3.920525e-38 -0.13790758 -0.0071699885
-0.05239501 -1.3148525e-11 -0.09700605 -5.140763e-38 0.0021121292 -0.14025019 -1.1045613e-38 -1.7401976e-38
-0.09994066 0.046570744 -0.05185255 -3.5916417e-38 -5.350689e-06 -1.364715e-39 -0.0051094587 -0.0008777596
-0.10126681 0.0015271663 0.047012385 4.1773083e-38 0.025973754 -6.4481e-17 -5.6137536e-28 0.00577759
0.024491044 0.09817168 -6.953827e-38 -0.07780088 -0.051046204 -0.034758233 -4.2393505e-38 1.0677173e-38
0.03961307 -0.015983263 0.08432032 9.396895e-39 0.053934712 0.06607547 -0.0048134625 1.0132632e-38
0.054517582 -0.062631816 5.3631224e-38 0.064649835 -0.016860392 -0.037471104 5.671518e-38 0.05840235
1.9865995e-38 -0.07409523 -0.07561619 -1.80605e-40 -0.0066819736 0.00038084562 0.00373769 -0.01207802

edge_encoder.0.weight f4 [128, 2]
00000000: d426 093f c1d3 d4be fe2c f3bc 66f8 ca3e
00000010: 6c0e 7501 6c5e 9801 ac0f 003f ebf7 ecbd
00000020: 8394 a13e a1e2 01bf e29d 5fb4 cee8 e1b8
00000030: f04c f83d c26c 963e b961 553e 5685 163e
00000040: c48b 9f3d 28dd 873e 0632 a7bc 5f14 88be
00000050: 287b 1dbc 66d6 1939 21c5 0eb9 ceb4 3231
00000060: 4202 7ab4 a824 b1ac c365 3fb1 a790 b1b3
00000070: 4204 9c3e 4367 be3d dde4 163d fdf5 f83d
00000080: 6745 dabc ff41 c53d 456b 973e a0d1 16bf
00000090: 0d05 46bc 0e40 5a3c e6d2 8880 f26d 11b7
000000a0: de64 073f 48ad 8b3e f13a 48b5 c0e5 0e80
000000b0: 5335 36b7 47e2 d633 6844 df3d 2c81 fd3e
000000c0: fb5d 3f3e c588 28bd c3e8 e83e 4c49 e2be
000000d0: 2be7 34b6 28a5 550e 28f7 42bc f826 183e
000000e0: 5419 c23d 38e1 033e e45c f83e 58c6 3ebc
000000f0: f5f9 fdb5 7a5b 16b7 e636 06b4 e924 3711
00000100: 6ed6 283d 2b19 febe 70b3 3db7 482d c732
00000110: dbda 65b8 f5af 9688 e791 853d 2106 53be
00000120: 53f2 efb7 0660 4b8e 7956 1ab3 b93c 85a0
00000130: c34c 6b3e d213 6cbe 438e 9a02 a183 a431
00000140: c6f3 ebac 0b3c 9b01 5e06 9c3d d167 cf3e
00000150: 8645 219f 4634 599a 216c 103e f005 83be
00000160: 684d 1401 05e1 97b9 c4d8 98b2 fc64 78b6
00000170: 39c9 f83c dff6 573e 8d90 a0b7 b129 9531
00000180: fce4 bcb9 d762 b539 c298 b781 2563 83b8
00000190: 5dd8 4281 a262 a4ae 035b 43b8 4f6a 6db3
000001a0: 8489 98b6 f54b f738 ca10 7280 256f 1eaa
000001b0: bc04 d13d 4cfc 35be 948e f83e b593 d43d
000001c0: 03da d83e 8797 083c edbe ba01 401e d695
000001d0: d46b cf3e db0e 413d 247f 05bb 056e 7f33
000001e0: ef3a 673e 3544 c2be c3ae f4b5 aba9 5528
000001f0: 97b7 07bc b6c4 ef3d e6ef babc 62c2 11bf
00000200: b86f c8ad 2a7a c6b9 0b4b 4b3e 1738 983d
00000210: edef e0b2 1e14 90b4 2b67 993e 8133 89bd
00000220: f26f d7b7 711a 9a01 900d c600 9eb6 238c
00000230: 2cd0 073e ea76 e4bc cc0d f1b7 c820 4481
00000240: d851 443d 1025 e23e e16f 103f 3c13 af3e
00000250: 4975 42b9 f8eb 929f 5841 9dbc 1764 c1be
00000260: 0257 97aa 50f2 e000 d86a a7a6 2457 7e36
00000270: e5a6 71b8 2f45 2786 6c46 2bb3 6bfd 8fa8
00000280: 494c 213e 5d8d 853e 2101 01b9 0657 beb8
00000290: 3411 c0b2 1045 b2ab 58e9 f63e 631e f1be
000002a0: 9954 093f 8600 e5bd 95d9 56bc 88e0 043d
000002b0: 7de2 e43e 91db b23d a342 e33e 645c 91be
000002c0: ce94 0d3f 40fa 4abe bebd 463d 5102 683e
000002d0: b050 70b2 b504 1a31 10de 6401 0052 89b9
000002e0: 45d3 a03e 6393 08bf a42e 9ab9 107f 9f2f
000002f0: 5782 83b7 d6f1 28af e7ec 973e 9080 cb3e
00000300: b474 0eb4 1624 b580 a1ac f2bc f0c1 093e
00000310: 231a 073f 7bd8 16bf 02fe 4fbc 919b 1f1d
00000320: ba6d 2fbc 7b6c 313d 976d 5801 95ff 9481
00000330: 4f90 0ebc f678 163c ded4 a93e e27f c1be
00000340: b90a a5bc 1fea c93d 6a14 95bc dc11 573e
00000350: d2bd bfac f2e2 eeb1 92ea a2bc 5aa2 333e
00000360: 07af ce3e a063 283e 2c00 eb3e 685f fbbe
00000370: 89fa a53e 00eb ae3d 8b4c 47ad d37a 0c83
00000380: 1ecb c8b7 fae4 1627 ca8d 9abc 0ee9 85b9
00000390: 4d47 203e 1e54 e23e 3731 17b7 df90 5cb7
000003a0: 386a 133f 2bc3 4a3e dd08 9dbc 1021 1b3e
000003b0: 8a6e e93e a61c b3be 9199 6bb7 0a2c 06b8
000003c0: b2f6 59bc 2922 3fbe 3c45 21bc ff60 3d3c
000003d0: 46a6 c43e 83bf b03e a518 6b01 fc4d 11b9
000003e0: 2ea7 d03e f3c8 1dbe 288f cbb9 09b1 c830
000003f0: 39fc 5ab5 980a 3c37 6097 7e3e 6a52 e4bd
0.5357487 -0.41567805 -0.02968454 0.39642638 4.500974e-38 5.597147e-38 0.50023913 -0.11570724
0.31558618 -0.50736433 -2.0825931e-07 -0.00010772199 0.1212405 0.2937985 0.2083806 0.14699301
0.0779033 0.26535916 -0.020409595 -0.26578042 -0.009611882 0.00014671087 -0.00013615612 2.6005185e-09
-2.3283886e-07 -5.0347122e-12 -2.7852003e-09 -8.268517e-08 0.30471998 0.09297039 0.036839355 0.121562935
-0.026644422 0.096317284 0.29574028 -0.5891361 -0.012086165 0.013320936 -1.2565284e-38 -8.668272e-06
0.52888286 0.2728064 -7.4591577e-07 -1.368116e-39 -1.0860461e-05 1.0006311e-07 0.10901719 0.49512613
0.18688194 -0.04114606 0.45490083 -0.44196546 -2.6956648e-06 2.6333797e-30 -0.011899747 0.14858615
0.09477487 0.12878883 0.4850837 -0.0116439685 -1.8922716e-06 -8.961995e-06 -1.2499694e-07 1.4447528e-28
0.04122012 -0.49628577 -1.1307056e-05 2.318724e-08 -5.480168e-05 -9.069164e-34 0.06521969 -0.20607807
-2.8603861e-05 -2.5067915e-30 -3.5934566e-08 -2.257126e-19 0.22978501 -0.23054436 2.270992e-37 4.7879927e-09
-6.706166e-12 5.7024165e-38 0.07618402 0.40508893 -3.4150585e-20 -4.4916774e-23 0.14103748 -0.25590467
2.7238843e-38 -0.00028968617 -1.7793703e-08 -3.701366e-06 0.030369388 0.21090268 -1.9140798e-05 4.3412105e-09
-0.0003602876 0.00034596652 -6.744278e-38 -6.265034e-05 -3.5787406e-38 -7.475377e-11 -4.6576384e-05 -5.527755e-08
-4.545962e-06 0.00011792026 -1.047527e-38 -1.407178e-13 0.10205981 -0.17772025 0.48546278 0.103797354
0.4235383 0.008336908 6.8599574e-38 -8.648164e-26 0.40511954 0.047133308 -0.0020369971 5.9471876e-08
0.22581075 -0.37942663 -1.8230279e-06 1.1860666e-14 -0.008283517 0.117074415 -0.02281947 -0.5693723
-2.278698e-11 -0.00037856522 0.19852845 0.07432573 -2.6186138e-08 -2.6836727e-07 0.29961523 -0.06699277
-2.5682126e-05 5.6608607e-38 1.8188294e-38 -1.2612018e-31 0.13263005 -0.027888734 -2.8735863e-05 -3.6023034e-38
0.047929615 0.441689 0.56420714 0.34194362 -0.00018544974 -6.222378e-20 -0.019196197 -0.37771675
-2.6883362e-13 2.0658076e-38 -1.1616913e-15 3.7899672e-06 -5.761431e-05 -3.1460037e-35 -3.987809e-08 -1.5986092e-14
0.15751757 0.26084414 -0.00012302819 -9.0761154e-05 -2.2359565e-08 -1.2666829e-12 0.48224902 -0.47093496
0.5364471 -0.111817405 -0.013113399 0.032440692 0.44704047 0.08733285 0.44386777 -0.283908
0.5530518 -0.19822025 0.048520796 0.22657134 -1.3988185e-08 2.2412625e-09 4.2036308e-38 -0.0002619177
0.31411186 -0.53349894 -0.0002940792 2.9012215e-10 -1.5677111e-05 -1.5365428e-10 0.2967293 0.39746523
-1.3267237e-07 -1.663517e-38 -0.029623332 0.13452888 0.52774256 -0.58924073 -0.0126948375 2.11239e-21
-0.010707313 0.043316346 3.975156e-38 -5.4733356e-38 -0.008701398 0.009184113 0.33170217 -0.3779288
-0.020146715 0.09859108 -0.01819821 0.21002907 -5.449621e-12 -6.9525123e-09 -0.019887242 0.17542401
0.4036791 0.16444254 0.4589857 -0.49096227 0.32417706 0.085409164 -1.1328836e-11 -4.1283298e-37
-2.3936442e-05 2.094081e-15 -0.018866438 -0.00025541376 0.15652199 0.442048 -9.01176e-06 -1.3146752e-05
0.5758395 0.19801013 -0.019169265 0.15149331 0.45592147 -0.34982795 -1.40428465e-05 -3.1989104e-05
-0.013303446 -0.18665375 -0.009843167 0.01155877 0.38408107 0.34521112 4.3180365e-38 -0.00013857329
0.40752548 -0.15408687 -0.00038825837 1.4602232e-09 -8.157836e-07 1.120814e-05 0.24862432 -0.11148532

edge_encoder.0.bias f4 [128]
00000000: da5e 3f3d 62e4 563f 058d cab1 8625 54bf
00000010: 101b 41bf 558e 1ba6 1e88 54bf e983 81be
00000020: b772 a1bd 42d6 0e3f e664 023f efa3 ee36
00000030: 6009 acac bc68 3915 be38 cb3e 6b08 07bf
00000040: 01ec 543f 0c45 39bf f910 85bc 7678 9fb6
00000050: 3feb 84be 5fba 0eb7 0ff2 09a0 58ad 4abf
00000060: 7363 b43e 6943 60bf 34ca e4aa c4e7 e23e
00000070: 840f 483e 4db5 f0be c245 4c80 9a93 af84
00000080: 3ef5 af3d 97f2 7a83 d484 0d80 cea4 14bf
00000090: 596a e2b6 8980 b931 d619 663e 9dca b2b9
000000a0: 177b 9001 4f0c a43e 6acf 859d dbbe 333e
000000b0: 3301 9d81 5dfd 0f33 eb3b 37be 1c5a 310e
000000c0: 94ee 8987 5349 e0b4 eb35 51b5 ed77 ab36
000000d0: 61f3 c431 3c3e 13b8 87f5 36bf f203 9f3e
000000e0: 12a6 b43e a6cd 9cb9 a9c7 24bf a499 0015
000000f0: fe43 12bf 80a0 0a01 2c85 c73e b40e 653f
00000100: 803f 8580 90cd 063e 451d 9f01 e93b d13e
00000110: 8c3c 3c81 b9ff d5b8 44b9 343e fcac 0cb9
00000120: 4d82 61be 8b55 003e 0350 902b c079 473f
00000130: 3cfd 2595 ad3f 3ab7 0684 b633 0f4f 36b1
00000140: 70c3 04bf ae06 0432 836b cdb9 0422 d9be
00000150: d510 aabe 7d3e 0e3f 1113 01bf d583 f1be
00000160: c72b cabe e14e 10bf 52fe ed80 0ec7 13b6
00000170: 3ba3 d9be d8a1 8139 73a5 0c29 1348 f4bd
00000180: 62f2 22b3 6336 633f 5149 2dbe 91c9 5739
00000190: f790 013f 39af 1fb0 07b2 5bbc fc72 04bc
000001a0: b781 f23e 7148 133f f9d2 f480 5603 d03e
000001b0: 2cee cbbe cd00 43bd 5c21 4abf b55d 3f28
000001c0: 617a c336 a987 d2b9 1995 88bd c3a3 a681
000001d0: 6361 3fbf cdb0 133f 27bd f5be d079 3b2d
000001e0: 0106 353f 3b88 ed3e e103 32bf e07d 5780
000001f0: 6c08 f03d 8ada 358e e2cb df30 b8a3 c13e
0.046721317 0.83942235 -5.895006e-09 -0.82869756 -0.7543192 -5.3969324e-16 -0.830202 -0.25295952
-0.07883208 0.5579568 0.5093521 7.112037e-06 -4.889575e-12 3.7443073e-26 0.39691728 -0.5274722
0.83172613 -0.7237098 -0.016243445 -4.7525928e-06 -0.2596073 -8.5072525e-06 -1.1684442e-19 -0.7917075
0.35232124 -0.8760286 -4.0641243e-13 0.44317448 0.19537169 -0.47013322 -7.004522e-39 -4.1277853e-36
0.08591698 -7.3746876e-37 -1.241511e-39 -0.5806397 -6.7477054e-06 5.3988214e-09 0.22470793 -0.00034101764
5.307387e-38 0.3204064 -3.541927e-21 0.17553274 -5.767441e-38 3.3525215e-08 -0.1789395 2.186032e-30
-2.0753693e-34 -4.1776602e-07 -7.793703e-07 5.1101583e-06 5.7320197e-09 -3.510549e-05 -0.71468395 0.31057698
0.35282952 -0.0002990786 -0.6436716 2.5970595e-26 -0.57135 2.546175e-38 0.3896879 0.8947556
-1.22369e-38 0.13164353 5.8449375e-38 0.4086602 -3.4573587e-38 -0.000102042635 0.17648798 -0.00013415882
-0.22022362 0.12532632 1.0254023e-12 0.7792015 -3.352125e-26 -1.110129e-05 8.49905e-08 -2.6529425e-09
-0.51860714 7.68493e-09 -0.0003918075 -0.42408764 -0.33215967 0.555641 -0.5041972 -0.47170892
-0.39486524 -0.5637036 -2.1856246e-38 -2.2020572e-06 -0.42507347 0.0002472538 3.122975e-14 -0.119278096
-3.793901e-08 0.8875486 -0.16922499 0.00020579087 0.50611824 -5.809287e-10 -0.013409144 -0.008084055
0.4736459 0.5753241 -2.2483544e-38 0.40627545 -0.39830148 -0.047608186 -0.7895715 1.0622949e-14
5.8256996e-06 -0.00040155396 -0.06669063 -6.1213756e-38 -0.74757975 0.5769165 -0.47995874 1.0656767e-11
0.70712286 0.46392998 -0.6953717 -8.034844e-39 0.11720356 -2.2415195e-30 1.6283332e-09 0.3782022

edge_encoder.3.weight f4 [128, 128]
00000000: 8aac 4abd 18b0 473e 9243 4481 ae32 51bd
00000010: 3bfd 043d eefe ac01 5d97 87bd 2a0f 99bd
00000020: d57a 3c3d 23c4 8dbd 011b 203e e655 9cac
00000030: 9267 c82d 84ee 4701 5b22 0f3d 5c68 113d
00000040: 1e55 633e 6e2a 9d3b ea20 3cb7 c69d 4301
00000050: b5c1 353d 300c 0c01 0c7f 5101 e25e 453d
00000060: 78cb 51bc f4c0 c9bc 5001 6101 1e49 f03d
00000070: 2464 813b 15b3 54bd 4ee3 0801 98a3 1901
00000080: 9e80 17bd d93d 7480 a609 1281 9452 6c3c
00000090: eee8 6c00 f76b b729 f61e f1bb c8f0 0901
000000a0: 201e a600 92fa 72bd d026 639a 07b3 a1bd
000000b0: 9093 a280 bb44 b330 8faf 8ebd 21c2 8681
000000c0: f8d6 fa00 2051 9881 a6c4 fa00 23d0 a832
000000d0: fc9d feae 6bd8 1881 6ed5 1c3c ddaf 0b3d
000000e0: e750 41bd eca4 a401 ff7d 81bd 47dd 3c12
000000f0: 1962 9cbd 286d e780 f8f3 083e 87d8 1d3e
00000100: f208 3a81 9e9a 253c b6c1 1181 4659 6b3c
00000110: 8cb7 ab81 008a 7181 b812 813d 26e4 1280
00000120: a928 7abd 7d0a 1b3d 9c7c 3a80 6c44 1f3e
00000130: 122d 6181 988d 9d80 bfef 8493 d6ff a801
00000140: c9c6 663d be0f cc88 4862 9101 2f0c 933d
00000150: d511 90bc 5b7a a73d 4dd2 03bd 4f45 803d
00000160: f49d 75ba 6372 153d 88c4 0b00 b004 9081
00000170: 40b7 293d 310a 0437 a0e1 0880 44c7 fdb7
00000180: e6ef cb80 a5f7 333e 59b8 bb3d 780e 59a4
00000190: 9447 343e 6e08 1081 2c2c 3ab9 0ffc b8bd
000001a0: 238f f63d eb5c 373e 88e2 d400 54de e63d
000001b0: f3b6 45bd 5cae a4bd bb81 89bc 5513 300c
000001c0: 3d71 0d34 a046 ab3a d23d acbc b076 f800
000001d0: 3b1a 1e3d 5fb8 1d3e 1e0d 8c3d 24b0 d386
000001e0: f665 bf3b aa2d 403e f33c 49bd 2293 5301
000001f0: 9259 48bd 229c b401 ab11 8f2f 19e4 dc3a
00000200: 3869 bc3c 6fd0 a4be 929f bb81 59f8 8fbc
00000210: 4d62 893b d81d e680 6a4d 593d 6fc9 233c
00000220: 087b b3bd 1f3a 62bd 3061 7fbe 036b b62c
00000230: 498e 8caf 06bb ad80 b282 23ba 8c24 26bd
00000240: 3fe6 92be a733 a33d 50a9 c3ba 5c98 0080
00000250: 6e9e a73d beea a181 508e 1c80 6d20 8c3d
00000260: 9bf2 833d 4c50 a53d e5af 3b81 40bf 39be
00000270: 0172 b5bc 40d0 4fbd cf30 0501 7068 2300
00000280: 27bb 27bd 218d 5301 128b 1f01 fcf2 053d
00000290: bc40 6301 dee7 06aa d313 f93c 785b 4380
000002a0: c68f 6c80 8be8 6b3a 43ef 821c 7805 763d
000002b0: 2048 3400 4d9a 8daf 11c5 8b3d 84d5 0e81
000002c0: b148 a601 125b 2e81 eef3 6b81 92fb 6ab2
000002d0: 3ccd faaf 46ba 1700 a974 a53d 0c4e 7ebd
000002e0: 32ae 003d f4f0 a280 61aa acbd 2e0e e392
000002f0: 2f49 e93c 8e22 7b81 0746 1cbe 1c75 70be
00000300: 9680 5f01 81ee 7fbd 4006 af00 ccd3 553d
00000310: f2af 2d81 ae80 a501 053e 6f3c f81f ac80
00000320: b456 943c b171 403c f54d 0182 5b97 5fbe
00000330: aae7 9b81 1226 b481 e2ed 9213 b802 6181
00000340: 2665 19bd 9b8a 3089 c306 9f81 3d18 91bd
00000350: e8f8 4c3d 417d 0ebe a343 333d b73f a43d
00000360: aa76 a03d b4f1 9f3c 508e ba80 9ef7 5281
00000370: cae8 923d 2a30 0fb6 b73f b780 1b0a 31bd
00000380: 7c55 9101 2548 79be de36 99bd a57b a423
00000390: 373d 84be 488d 5d81 9b37 a239 6006 263d
000003a0: e031 43be 37b3 74be 98e4 d300 5a0c 5ebe
000003b0: f6cc bb3c e4b6 663c 2e54 ee3b 1bce b40e
000003c0: db30 94b3 8899 fbba 17c0 4fbd ef3a 2681
000003d0: f07b 5c3d 846e adbe 9a17 b0bd 4264 0e07
000003e0: 420f 9cbd 5412 7ebe 0901 2dbd 5857 7201
000003f0: 4707 abbd 7f41 5d81 9676 31af d2a9 72bd
-0.049480952 0.19500768 -3.6047994e-38 -0.051073723 0.032468062 6.354863e-38 -0.06620667 -0.074735954
0.04601558 -0.06922176 0.15635301 -4.4433233e-12 2.2783362e-11 3.6721654e-38 0.034944873 0.035499915
0.22200438 0.004796318 -1.1213337e-05 3.592904e-38 0.044374187 2.5722683e-38 3.847839e-38 0.04818619
-0.012804858 -0.02462814 4.1326915e-38 0.11732696 0.0039487053 -0.0519286 2.5142338e-38 2.8219035e-38
-0.036987893 -1.0675104e-38 -2.6822887e-38 0.014423985 1.0001793e-38 8.1455615e-14 -0.007358427 2.5335678e-38
1.5255499e-38 -0.059320994 -4.6973852e-23 -0.07895475 -1.4930286e-38 1.3043499e-09 -0.06967079 -4.950239e-38
2.303599e-38 -5.595239e-38 2.3029418e-38 1.9652424e-08 -1.15786464e-10 -2.8073263e-38 0.00957237 0.034103263
-0.047196295 6.0480737e-38 -0.0632286 5.9595085e-28 -0.07635898 -2.1253157e-38 0.13374317 0.1541463
-3.4169223e-38 0.010107664 -2.6771275e-38 0.014364546 -6.3078856e-38 -4.436372e-38 0.063023984 -1.734883e-39
-0.061073933 0.0378518 -5.37116e-39 0.15553445 -4.135831e-38 -1.4468967e-38 -3.3557893e-27 6.208056e-38
0.05634192 -1.2281504e-33 5.3405614e-38 0.07180058 -0.017586628 0.08177634 -0.03218298 0.062632196
-0.0009369545 0.03648604 1.080693e-39 -5.290397e-38 0.041434526 7.870186e-06 -8.15623e-40 -3.025274e-05
-1.8728665e-38 0.17574938 0.09166021 -4.706663e-17 0.1760543 -2.645467e-38 -0.00017754798 -0.09032451
0.1203902 0.17906539 1.9550389e-38 0.112728745 -0.048270177 -0.08041069 -0.016785493 1.3564364e-31
1.3172844e-07 0.0013067313 -0.021025572 2.281778e-38 0.038599234 0.15402363 0.068384394 -7.9628194e-35
0.005841012 0.1876742 -0.04913039 3.8860142e-38 -0.048913546 6.6345597e-38 2.6024102e-10 0.0016852646
0.022999391 -0.32190272 -6.8921923e-38 -0.017574476 0.0041926266 -2.113287e-38 0.053052343 0.009996756
-0.08763701 -0.05523121 -0.24939418 5.184632e-12 -2.556695e-10 -1.5954632e-38 -0.00062374317 -0.040562198
-0.2869129 0.07968836 -0.0014927778 -5.4656e-41 0.08184515 -5.94789e-38 -2.622446e-39 0.06842122
0.06442758 0.08071956 -3.4472674e-38 -0.18139362 -0.022149088 -0.050735712 2.446326e-38 3.251707e-39
-0.040949967 3.8855834e-38 2.9303466e-38 0.03270243 4.173976e-38 -1.1982036e-13 0.03040496 -6.185791e-39
-9.96981e-39 0.000899919 8.664526e-22 0.06006381 4.80132e-39 -2.5757388e-10 0.06824697 -2.623447e-38
6.1083077e-38 -3.2024092e-38 -4.3337694e-38 -1.3677793e-08 -4.5620563e-10 2.179039e-39 0.08078892 -0.06208615
0.031416126 -1.4963788e-38 -0.08430935 -1.432921e-27 0.02847728 -4.612621e-38 -0.15261088 -0.23482174
4.1050887e-38 -0.062483314 1.6073454e-38 0.05220394 -3.1901316e-38 6.0796074e-38 0.014602189 -1.5807174e-38
0.01810775 0.011745856 -9.499796e-38 -0.21835081 -5.727043e-38 -6.6176185e-38 3.7090152e-27 -4.1327924e-38
-0.03744998 -2.1250401e-33 -5.841708e-38 -0.07084701 0.050042063 -0.13914968 0.043765675 0.08019965
0.078351334 0.019524433 -1.7132454e-38 -3.8748565e-38 0.07173307 -2.1336696e-06 -1.6828752e-38 -0.043222528
5.338725e-38 -0.24343927 -0.07481168 1.7833281e-17 -0.25827953 -4.0692654e-38 0.00030940477 0.040533423
-0.19061995 -0.2389649 1.9459294e-38 -0.21684399 0.022924881 0.01408169 0.0072732186 4.45719e-30
-6.900674e-08 -0.0019195536 -0.0507203 -3.0531668e-38 0.053829134 -0.3387338 -0.08598252 1.0712356e-34
-0.07620098 -0.24811679 -0.042237315 4.4511046e-38 -0.083509974 -4.063828e-38 -1.6140186e-10 -0.059243985

edge_encoder.3.bias f4 [128]
00000000: 71c6 833c 8307 40bd af6e 8dbd e31c ba3b
00000010: 74b8 95bd 5b33 443d 7ea4 31bd 1f38 9ebd
00000020: 2ed8 ed3d 6083 1b3e 659b e13d c119 2c3d
00000030: 757f 5fbc 0d64 9e3b 334c f93d 0785 66bd
00000040: d515 b5bc db59 bc3d f056 9f3d e440 9fbd
00000050: 666c 0b3d 2469 d2bc 86f2 b53c 7982 70bd
00000060: 67be 0a3d 478d 013e 8f1b c7bd af3e efbc
00000070: 65cf 92bd 8b31 d53d 3fa8 563d 7373 12be
00000080: 9803 6f3b 458d 98bd 297f 113d 10f5 ed3d
00000090: d878 573d 16f1 183e 9336 fc3d f654 dfbc
000000a0: 01bf bebd bb18 e8bd 3844 65bd cf1b e53d
000000b0: c010 9b3c 20f7 39bc 9d18 8abd a924 e23c
000000c0: a6c6 413e 3325 dabd 8818 1a3e aa5a 29be
000000d0: b7e8 62bd ccde ea3d e54e ee3d 99d7 5abd
000000e0: e787 2a3e c8ea 7b3d 60c0 72bc 17e4 63bc
000000f0: e6cb 313d 5838 17be edde 893d 417f e83d
00000100: 3652 313d 1afc 933d 59a7 34be 8638 9c3d
00000110: ebad 31be f2d1 2ebe 8835 0ebe b20f c6bd
00000120: 6162 76bd 6806 7ebd 465a f73d 9c2d 763d
00000130: 59ae 6abd 5a7a 8e3a 1d8b 1a3d 7c1f 08be
00000140: e717 7b3c 2f25 37bd d7f4 a239 2926 1e3e
00000150: 1347 993d 5636 19be d02c eebd 0131 30bd
00000160: be80 9c3d 0be0 903c 0fda 0f3e f876 06bd
00000170: 7e2e edbd 64de 9ebd 28c6 ca3d 6b04 e7bd
00000180: b5da b73d 91ef 123e d672 6dbd 5416 823d
00000190: 3ac9 a33d ddd5 15bb a5d5 91bd 8c97 043e
000001a0: 74d3 b23d 1499 613d 2bf6 b0bd 49d5 4fbd
000001b0: d3e3 5b3d 3dd8 da3d b7a2 2a3e cfd6 35be
000001c0: b7f8 0ebe 9ae3 123c db63 2b3e d6af a33d
000001d0: 1eb8 113e 47ad c43c 463e 273e 6f64 5ebd
000001e0: 7311 eebd 32ef 8fbc 812f 21be a5c3 3b3e
000001f0: da25 f7bd b10e 8239 2c90 4cbd 9cb1 333e
0.016085835 -0.046882164 -0.06905877 0.005679713 -0.07310572 0.04790054 -0.043369763 -0.07725548
0.11613499 0.15186834 0.11015967 0.04201675 -0.013641228 0.0048337043 0.12172737 -0.05627921
-0.022105137 0.09196826 0.07780254 -0.07776049 0.034038924 -0.0256849 0.02221037 -0.05871818
0.033872988 0.1265155 -0.09722053 -0.029204695 -0.071684636 0.1040984 0.052406546 -0.14301853
0.0036470648 -0.0744882 0.03552166 0.116190076 0.05260548 0.14935717 0.12315097 -0.027262192
-0.09313775 -0.11332842 -0.05597326 0.11186945 0.018928885 -0.011350423 -0.06742976 0.027605372
0.18923435 -0.106516264 0.1504842 -0.16538492 -0.055397715 0.114682764 0.11636142 -0.053428266
0.16653405 0.0615032 -0.014816374 -0.013909361 0.043407343 -0.14767587 0.06731973 0.11352397
0.043291293 0.07225819 -0.17641963 0.076279685 -0.173515 -0.17072275 -0.13887608 -0.096709624
-0.060152415 -0.06201783 0.12077765 0.06010209 -0.057295177 0.0010870204 0.037730325 -0.1329326
0.015325523 -0.044713195 0.00031081468 0.15444244 0.074842595 -0.14962134 -0.11629641 -0.043015484
0.07641743 0.017684957 0.14048027 -0.0328283 -0.11581133 -0.077572614 0.099010766 -0.112801395
0.08977262 0.143492 -0.057970844 0.06351915 0.07997365 -0.0022863068 -0.071208276 0.12948436
0.08731738 0.055077627 -0.08640703 -0.050740514 0.053684067 0.106857754 0.16663633 -0.17757724
-0.13962065 0.008965397 0.1673731 0.079925224 0.14230391 0.024008406 0.16332349 -0.054295
-0.11624422 -0.017570112 -0.15740778 0.18336351 -0.120677665 0.00024806478 -0.04994218 0.17548221
