vrp_images/best_vrp_model.pt (torch, 543269 bytes, 21 tensors)

node_conv1.bias f4 [128]
4.167747e-16 0.0041949996 0.0015987685 0.0020307903 -0.0004199816 0.0 0.0 0.0
-0.0061627845 0.0 0.016447162 -0.008272632 0.0 -0.0071422 0.0030992716 -4.8843185e-06
0.0 0.008145017 0.0 0.0 0.0 -0.0012180706 -0.013043797 -1.8949223e-16
-0.007960947 -0.0071090027 0.0 -0.012528719 0.0 -0.003201452 0.007910515 -0.004294893
0.0 -0.011994849 0.0019180586 0.0 -0.0021126864 -0.014761205 -0.013236374 -3.9526094e-16
-0.022288984 0.0 -0.003003981 -1.9397957e-08 2.1508685e-08 0.0048671337 -0.005890383 0.013839905
0.0025099982 0.011036237 0.0 1.7233312e-18 -0.01051114 0.0034941062 -0.008226906 -0.004387555
-0.004358775 -0.0053112726 -0.016137578 -0.0062812176 0.0 0.0 -3.4584664e-05 -0.016390424
0.0 0.0049989475 0.0 0.0 0.0 -0.01160083 0.0 0.0096194325
0.0 5.025393e-06 1.8704925e-05 -0.0032533882 4.6336015e-09 -0.012568064 0.0 0.0028320258
-0.012140348 8.087792e-08 0.012280758 -0.012749476 -2.027396e-15 0.0 -0.0060966867 0.0
-0.01163641 -0.006621244 -0.01434283 3.5729647e-06 -0.008790394 0.0 -0.008586039 0.000521414
5.9822534e-05 -2.0410225e-08 0.0 0.009925785 0.0 -0.005595154 0.0018546043 0.0022040554
-0.0014531414 0.0 -0.014114879 -0.00840029 0.011405104 0.0 0.0015643964 -0.00174136
-4.887116e-16 0.0 -1.5074708e-09 -0.006480197 -0.015649788 0.0 0.0 -1.6599148e-07
-0.0007082618 -0.0049973093 -0.0122752795 0.005958518 0.0 0.0 0.0 0.005699017
00000000: 1741 f025 3576 893b c58d d13a 0217 053b
00000010: fa30 dcb9 0000 0000 0000 0000 0000 0000
00000020: 2ff1 c9bb 0000 0000 33bc 863c ef89 07bc
00000030: 0000 0000 1e09 eabb 261d 4b3b fae3 a3b6
00000040: 0000 0000 ad72 053c 0000 0000 0000 0000
00000050: 0000 0000 aba7 9fba a6b5 55bc 3c78 5aa5
00000060: a26e 02bc a3f2 e8bb 0000 0000 4245 4dbc
00000070: 0000 0000 74cf 51bb 1b9b 013c 2cbc 8cbb
00000080: 0000 0000 0b86 44bc 5e67 fb3a 0000 0000
00000090: ff74 0abb fbd8 71bc 60dd 58bc 38da e3a5
000000a0: 6397 b6bc 0000 0000 70de 44bb 8fa0 a6b2
000000b0: 19c2 b832 7a7c 9f3b 1d04 c1bb c5c0 623c
000000c0: c87e 243b 55d1 343c 0000 0000 9d51 fe21
000000d0: eb36 2cbc 60fd 643b 25ca 06bc 7bc5 8fbb
000000e0: 0ed4 8ebb 2f0a aebb f432 84bc acd2 cdbb
000000f0: 0000 0000 0000 0000 000f 11b8 3645 86bc
00000100: 0000 0000 36ce a33b 0000 0000 0000 0000
00000110: 0000 0000 6811 3ebc 0000 0000 d39a 1d3c
00000120: 0000 0000 cc9f a836 85e8 9c37 cc36 55bb
00000130: 9735 9f31 48ea 4dbc 0000 0000 8299 393b
00000140: 4fe8 46bc 1baf ad33 3b35 493c 2ee3 50bc
00000150: db16 12a7 0000 0000 b7c6 c7bb 0000 0000
00000160: a4a6 3ebc 05f7 d8bb 30fe 6abc 11c7 6f36
00000170: 9605 10bc 0000 0000 75ac 0cbc 80af 083a
00000180: f5e9 7a38 8f52 afb2 0000 0000 c29f 223c
00000190: 0000 0000 8e57 b7bb 3216 f33a ea71 103b
000001a0: 5677 beba 0000 0000 1842 67bc 5fa1 09bc
000001b0: 79dc 3a3c 0000 0000 6f0c cd3a 593e e4ba
000001c0: 8ddc 0ca6 0000 0000 6a2f cfb0 d557 d4bb
000001d0: fc33 80bc 0000 0000 0000 0000 643b 32b4
000001e0: a5aa 39ba 78c0 a3bb 411e 49bc ac3f c33b
000001f0: 0000 0000 0000 0000 0000 0000 d2be ba3b

node_conv1.lin.weight f4 [128, 7]
-0.020071842 -0.021158593 7.786248e-17 7.618026e-16 0.033971727 -2.4706729e-13 1.29256505e-05 0.0056632473
0.04483336 0.058066677 -0.14526764 0.023277007 -0.0042243367 -0.009878551 -0.1580446 0.18910623
0.105875686 0.06250599 0.20013861 -0.024050666 -0.0017251243 0.08338836 -0.032625966 -0.027118482
-0.13126357 0.058538143 -0.05534732 0.0006655971 0.20068468 -0.069832265 -0.033351157 0.06329226
-0.078547336 -0.0009269967 0.00421712 1.0337358e-15 -3.4064353e-08 -1.2625034e-12 1.1383635e-17 2.1647534e-15
1.2005157e-13 -9.110492e-16 5.2658483e-18 7.328155e-17 -4.5090286e-07 5.3138718e-17 -6.9047897e-16 3.8654908e-17
-1.2506222e-05 9.025036e-18 -8.5786546e-08 -4.813876e-07 -1.6005025e-06 -2.6834234e-16 1.4407835e-11 8.7382333e-16
0.15825905 0.10662075 0.09290276 -0.16940059 -0.15703382 -0.04945541 0.035087623 2.623965e-18
-1.5072526e-07 4.147881e-20 -4.4714298e-07 -2.909184e-19 -1.384338e-18 5.6364684e-06 0.08123343 -0.016582735
0.02506617 -0.011349664 0.100976095 0.014764214 0.0036580095 -0.09155721 0.168363 -0.022757627
-0.054647904 0.1203195 0.037803505 0.00642767 3.1935008e-17 -1.1853024e-16 4.7475553e-15 4.6933096e-06
-5.124898e-05 -2.2811348e-18 -4.561681e-09 0.03183355 0.07906178 -0.04275149 -0.021668881 0.08639578
-0.026710592 -0.043701787 0.17125882 -0.1032833 -0.013374 0.013393508 -0.00786195 -0.06173289
-4.672315e-05 2.6186739e-05 -5.023775e-05 -7.971472e-07 -5.2572136e-07 5.427495e-06 4.0347427e-07 1.4585964e-07
2.2373433e-16 -2.2832594e-17 4.0260804e-19 -1.2740146e-06 2.0185251e-11 2.0992646e-19 4.3158057e-18 0.122666925
-0.13993618 0.040282514 0.061062533 0.12162622 -0.02651962 0.0010706547 -4.8787015e-06 6.2982904e-11
9.543005e-13 2.0548147e-18 1.318636e-15 -5.321362e-13 2.9312638e-18 1.9382572e-11 4.051708e-14 -2.8024862e-15
1.716485e-17 -5.9013673e-06 3.8317226e-20 3.0514702e-05 2.2938506e-14 2.6667747e-13 -1.6309127e-19 1.788913e-18
-1.1250646e-06 5.7633827e-07 -2.1103453e-19 0.038152695 -0.086525016 -0.013492446 0.0021304097 0.06830613
-1.0260366e-05 -9.831318e-06 0.1910978 -0.044030137 -0.113807164 -0.08965416 0.19221212 -0.008928509
-0.008381956 -0.0032850564 -0.0032546318 -3.1505756e-06 -8.2286846e-07 0.00045042494 4.4675917e-06 3.3233442e-05
-0.15990236 0.10446728 -0.10301136 0.08661043 0.14151432 0.06819923 0.014010788 0.12438929
-0.004549878 0.07326168 -0.06891656 0.08300429 -0.042449217 -0.002285894 -6.288163e-06 -7.6495405e-18
2.155248e-13 -1.1587282e-16 3.5824278e-11 -1.18374755e-05 -1.4700432e-18 0.12130274 0.1751781 0.07067491
-0.08045027 -0.22050872 0.01939168 0.003620035 -4.756784e-06 -2.1243308e-16 3.4467532e-06 7.0944696e-19
1.5120486e-11 1.7355527e-06 1.8485605e-15 0.13340299 -0.1487065 0.07250154 -0.08733347 0.19998305
-0.019092677 0.005374168 0.053508814 0.063288584 -0.011036804 0.04694772 -0.074772336 -0.033867113
-0.0019081099 0.15950492 -0.062036436 0.04463221 -0.063018546 0.15149713 0.051145922 0.005098902
2.3824824e-14 -1.6049421e-06 -7.253367e-20 -6.8525464e-13 1.8526335e-06 -3.7125592e-05 -4.393518e-16 0.19699547
0.09290496 0.04806633 -0.17731567 0.18834811 -0.028838772 -0.04339254 0.20946322 -0.083214134
-0.008897525 0.14527132 -0.14276123 -0.060497265 0.002757805 2.970151e-18 -4.7431645e-18 -2.8954798e-06
5.347884e-19 -6.661984e-16 -3.7839323e-14 -1.637444e-05 0.10929028 0.038707532 -0.082431994 0.07712002
00000000: b46d a4bc c954 adbc e589 b324 1c93 5b26
00000010: f025 0b3d 2616 8baa 3fdb 5837 c392 b93b
00000020: 2fa3 373d 53d7 6d3d 0ac1 14be 6caf be3c
00000030: 4e6c 8abb a5d9 21bc 72d6 21be 10a5 413e
00000040: 5ad5 d83d 2403 803d 23f1 4c3e e705 c5bc
00000050: 911d e2ba 84c7 aa3d cea2 05bd 9427 debc
00000060: f569 06be b1c5 6f3d dfb3 62bd 777b 2e3a
00000070: 4980 4d3e 3804 8fbd 399b 08bd 5f9f 813d
00000080: 6ddd a0bd b201 73ba c42f 8a3b 1ffa 9426
00000090: 274e 12b3 7bae b1ab b2fd 5123 a7fc 1b27
000000a0: 822a 072a c84b 83a6 8846 c222 cbf9 a824
000000b0: 9e13 f2b4 200f 7524 5b04 47a6 a943 3224
000000c0: d1d1 51b7 877b 2623 a739 b8b3 b438 01b5
000000d0: d9d0 d6b5 57b0 9aa5 1f77 7d2d c8dc 7b26
000000e0: a90e 223e fb5b da3d cd43 be3d 5977 2dbe
000000f0: 79cd 20be c291 4abd 0ab8 0f3d 4c9d 4122
00000100: 0bd7 21b4 cee0 431f dd0e f0b4 58ba aba0
00000110: d04a cca1 e520 bd36 b65d a63d 84d8 87bc
00000120: 9257 cd3c f1f3 39bc 8ecc ce3d 9ae5 713c
00000130: 37bb 6f3b 5982 bbbd 5a67 2c3e 346e babc
00000140: 7bd6 5fbd 126a f63d d9d7 1a3d 349f d23b
00000150: 3446 1324 f4a7 08a5 780c ab27 397b 9d36
00000160: 2cf4 56b8 6b51 28a2 f8bc 9cb1 e663 023d
00000170: 24eb a13d 301c 2fbd f082 b1bc 45f0 b03d
00000180: 2cd0 dabc a500 33bd 795e 2f3e 3286 d3bd
00000190: 9f1e 5bbc 7270 5b3c 69cf 00bc a0db 7cbd
000001a0: 9af8 43b8 98ab db37 60b6 52b8 8afb 55b5
000001b0: 4c1f 0db5 d41d b636 159d d834 989d 1c34
000001c0: 5cf9 8025 f097 d2a3 68a8 ed20 cffe aab5
000001d0: 258d b12d 61d6 7720 a239 9f22 cc38 fb3d
000001e0: 6e4b 0fbe 47ff 243d b51c 7a3d 2b17 f93d
000001f0: ad3f d9bc 3655 8c3a bab3 a3b6 3980 8a2e
00000200: 4d4e 862b 5a9e 1722 1509 be26 74c8 15ab
00000210: 024a 5822 ac7d aa2d 0379 3629 bff0 49a7
00000220: 5b51 9e23 5c04 c6b6 aff2 341f d3f9 ff37
00000230: 989c ce28 4620 962a 508b 40a0 9cff 0322
00000240: ed00 97b5 aab5 1a35 4625 79a0 0046 1c3d
00000250: 0734 b1bd 6c0f 5dbc 589e 0b3b 16e4 8b3d
00000260: f023 2cb7 30f1 24b7 24af 433e f258 34bd
00000270: bb13 e9bd 9a9c b7bd 41d3 443e e248 12bc
00000280: 7954 09bc 1a4a 57bb a94b 55bb 7a6e 53b6
00000290: 17e3 5cb5 0327 ec39 52e8 9536 2364 0b38
000002a0: 72bd 23be f1f2 d53d 9ff7 d2bd cf60 b13d
000002b0: 21e9 103e 0aac 8b3d 818d 653c d0bf fe3d
000002c0: 2517 95bb 380a 963d 2024 8dbd 27fe a93d
000002d0: 3bdf 2dbd f0ce 15bb e9fe d2b6 ef1b 0da3
000002e0: cba8 722a 9f97 05a5 8d8e 1d2e 9299 46b7
000002f0: a9f0 d8a1 926d f83d e361 333e 02be 903d
00000300: 1cc3 a4bd 0acd 61be 4ddb 9e3c 1c3e 6d3b
00000310: 779c 9fb6 2eeb 74a5 c54e 6736 4c64 5121
00000320: 4f00 852d 23f1 e835 ec33 0527 cb9a 083e
00000330: 8446 18be b07b 943d e4db b2bd 5bc8 4c3e
00000340: 3f68 9cbc ca19 b03b 0f2c 5b3d 729d 813d
00000350: b6d3 34bc 414c 403d 3d22 99bd 3eb8 0abd
00000360: 8b19 faba 4255 233e eb19 7ebd 44d0 363d
00000370: de0f 81bd 1022 1b3e 637e 513d b114 a73b
00000380: 4e98 d628 6469 d7b5 ea43 ab9f cde1 40ab
00000390: 01a8 f835 4db7 1bb8 e244 fda5 2eb9 493e
000003a0: f544 be3d 33e1 443d 3d92 35be 54de 403e
000003b0: 4a3f ecbc 60bc 31bd 877d 563e 2c6c aabd
000003c0: edc6 11bc 01c2 143e 0030 12be fbcb 77bd
000003d0: 4abc 343b 9128 5b22 ecfd aea2 f74f 42b6
000003e0: 78d7 1d21 c404 40a6 c569 2aa9 d85b 89b7
000003f0: 95d3 df3d ca8b 1e3d 1bd2 a8bd 1af1 9d3d

node_convs.0.bias f4 [128]
-0.012885728 0.0030991265 -0.0015002387 0.0120303985 -1.3194439e-07 0.0 -2.5399616e-09 3.1510065e-13
-0.00922546 -0.0062651387 -0.00384838 -0.00071594 -8.60123e-09 -0.0142650055 2.303428e-13 0.0
-9.877643e-05 0.0026882093 1.6009757e-08 0.0052182684 -0.0032001603 -1.1132154e-12 -0.020382795 -8.904602e-05
-0.000244773 -0.0046184445 -0.0042271935 -0.0033149188 0.0026468986 -0.003755847 -0.008722954 -0.005364732
-0.0085208025 -0.0010488541 0.0 1.1610031e-09 -0.011013148 0.0055532083 0.0 0.0
0.0 0.00106218 -1.0217826e-11 -0.0027352974 -1.5555393e-08 -0.0009353857 -1.05054205e-08 -0.012397802
0.0 -0.007887364 -8.702704e-05 -0.014021914 -0.011348123 2.6453786e-09 -0.008027616 -0.0067086928
-0.005102512 -1.4243217e-05 -1.4564377e-10 -0.0023687957 0.0 0.0 0.015125138 -0.007667282
0.0042876177 -3.752815e-12 -1.3826731e-07 0.008329217 -0.006365146 -0.0039072013 -0.009805144 -0.014755772
0.0 -9.19395e-09 -0.0045817406 -0.0013405946 -0.008213313 0.0045018336 1.5253745e-07 -0.0022188884
-0.0055468697 1.7302215e-09 -9.1070006e-11 -0.0012677455 9.133757e-06 -0.0022807077 -0.00044231367 -0.013214196
-0.0011330775 -0.0048850784 -0.012018719 -0.017262502 -0.007878127 -2.0297213e-07 -0.0027703564 -0.014573433
-0.013106928 -0.0063536516 -0.008101611 -0.00031353973 0.0015774927 0.0 -0.0016939268 -5.229043e-12
0.0 -0.0065861144 -0.0069109495 -0.0053234496 -0.010591047 0.0 -0.002281726 -2.4699034e-09
-1.2102893e-11 -6.7593275e-05 -1.6899463e-06 -0.009946243 0.0 -1.2432994e-05 -0.0016416616 0.0
-0.0074021355 -0.0027475336 -5.55643e-10 0.0019647987 -0.0077675157 -0.011361869 0.0 0.0
00000000: a91e 53bc b71a 4b3b a8a3 c4ba 261b 453c
00000010: 99ac 0db4 0000 0000 7a8b 2eb1 ca62 b12a
00000020: 6226 17bc cb4b cdbb 1a35 7cbb ecad 3bba
00000030: 9cc4 13b2 c5b7 69bc e5ab 812a 0000 0000
00000040: 3126 cfb8 ab2c 303b d485 8932 02fe aa3b
00000050: c8b9 51bb d0ab 9cab d2f9 a6bc 38be bab8
00000060: e054 80b9 5256 97bb 4584 8abb 1c3f 59bb
00000070: 9777 2d3b a824 76bb b9ea 0ebc a2ca afbb
00000080: d69a 0bbc b479 89ba 0000 0000 2a91 9f30
00000090: 7e70 34bc b0f7 b53b 0000 0000 0000 0000
000000a0: 0000 0000 d938 8b3a ffc0 33ad ad42 33bb
000000b0: ac9e 85b2 ac34 75ba 547b 34b2 2720 4bbc
000000c0: 0000 0000 013a 01bc 4982 b6b8 2cbc 65bc
000000d0: 7aed 39bc fec9 3531 4386 03bc 98d4 dbbb
000000e0: f932 a7bb 27f6 6eb7 1423 20af cc3d 1bbb
000000f0: 0000 0000 0000 0000 6dcf 773c d33d fbbb
00000100: 257f 8c3b 5a0a 84ac a176 14b4 4577 083c
00000110: b792 d0bb fb07 80bb c1a5 20bc 32c2 71bc
00000120: 0000 0000 6bf3 1db2 6d22 96bb e4b6 afba
00000130: 2291 06bc 1e84 933b 2dc9 2334 c56a 11bb
00000140: 84c2 b5bb c2cc ed30 db43 c8ae 7b2a a6ba
00000150: 303d 1937 ed77 15bb 56e6 e7b9 5b80 58bc
00000160: c683 94ba 0213 a0bb 29ea 44bc 176a 8dbc
00000170: 4213 01bc 8ef0 59b4 de8e 35bb 69c5 6ebc
00000180: 71be 56bc 4b32 d0bb 9fbc 04bc 9762 a4b9
00000190: dfc3 ce3a 0000 0000 c006 deba 08fb b7ac
000001a0: 0000 0000 55d0 d7bb 3f75 e2bb 5570 aebb
000001b0: 1286 2dbc 0000 0000 0389 15bb 00bb 29b1
000001c0: 96ea 54ad ddc0 8db8 1dd2 e2b5 91f5 22bc
000001d0: 0000 0000 4d97 50b7 062d d7ba 0000 0000
000001e0: 9d8d f2bb f70f 34bb e6bb 18b0 dac3 003b
000001f0: a586 febb 2227 3abc 0000 0000 0000 0000

node_convs.0.lin.weight f4 [128, 128]
-4.025581e-15 0.014140315 0.05488812 0.1326061 0.087612346 1.6183545e-12 9.3405694e-15 2.5790915e-13
0.10602153 1.7425511e-09 0.059400856 0.050784845 -2.0512086e-18 0.042300366 -0.08828387 -1.9024881e-05
3.8183288e-09 -0.10111036 3.0833346e-11 -3.4386198e-19 3.667192e-16 -6.57957e-05 0.08292709 2.282631e-17
0.010627275 0.07988069 -1.1809648e-16 -0.017576212 -8.3658875e-09 0.10884089 -0.061410997 -0.09970718
8.614604e-18 0.08983658 0.0057398174 8.3271994e-16 -0.1471958 0.055115826 0.040948033 2.6833493e-15
0.13858786 1.7104688e-16 0.04597394 -1.4542351e-08 7.545459e-09 -0.06193933 -0.12786956 0.018887857
-0.08763171 -0.11718263 -8.137047e-09 -1.0428179e-18 -0.03280845 0.04728297 0.05441237 -0.053533472
-0.065707766 0.100858025 -0.03478445 0.09148204 6.65635e-11 9.954378e-10 1.1291788e-05 -0.11381554
5.8598724e-18 0.06062436 1.8637851e-16 3.1141251e-18 3.1586007e-17 -0.058964353 2.2964703e-13 0.1357485
4.1298175e-18 -1.2547984e-05 1.1818994e-05 -0.12795061 3.6558473e-10 0.06824409 1.4010878e-13 0.00014065314
0.053765133 3.5483872e-08 -0.044024326 0.13835359 5.701853e-17 2.9895908e-08 -0.15919018 -8.6229045e-19
-0.06513808 0.10675602 0.062288985 2.7806871e-05 0.08140902 -2.590545e-15 -0.05061586 0.066978246
6.825792e-05 0.00048153885 1.2715146e-17 -0.13101691 -1.8015391e-15 -0.09111168 -0.15028204 -0.06542216
0.036008216 2.2848897e-17 0.07330561 0.021177601 -0.107426494 -5.5329057e-09 0.06806606 0.016451374
1.0081255e-12 -4.271449e-09 -7.1620163e-09 -0.01758313 0.11635002 5.761212e-12 -4.2196582e-16 -6.1177e-07
0.0010694012 0.00042137172 -0.06987404 0.08357302 1.9531712e-13 1.5868294e-18 -5.717796e-17 -0.0070118248
-7.5896703e-20 -0.0015874307 0.15347964 -0.12748837 -0.06332188 -1.1971836e-18 -4.2024488e-17 2.6037064e-09
0.0795053 2.4267532e-13 0.11193721 -0.0077141193 5.4928473e-15 -0.012036089 0.09765993 -1.4569567e-05
-1.7037499e-17 0.023407586 2.4098886e-18 -5.6049585e-11 -2.3581805e-12 -4.585819e-05 -0.04265706 -3.4718034e-11
0.083410606 -0.112839624 -1.9179232e-09 0.12615937 -4.4474044e-18 0.12290353 -0.11826771 -0.08419021
-5.559088e-18 0.09565441 -0.11896433 6.470921e-11 -0.04527291 -0.07444918 0.14849515 1.08731006e-17
-0.10078389 3.6630238e-17 -0.0010519576 3.8290274e-08 1.7452637e-10 0.14008132 -0.09687409 0.08427048
-0.042104766 -0.1107547 -1.07893535e-17 -6.496398e-15 -0.09889692 -0.089852065 0.0045197885 -0.013450884
0.12493823 -0.11900945 -0.020551957 0.09740508 -7.318978e-15 2.3593429e-18 -7.2043497e-07 -0.14319429
8.893273e-17 0.0444226 -5.5440964e-19 2.7120842e-12 2.4352918e-19 -0.12265988 -2.124364e-08 0.02731489
-2.4892863e-15 -1.9442188e-05 -3.222735e-05 0.12393369 -3.358784e-09 -0.067387655 -4.1642785e-08 0.019269463
-0.12759237 6.645369e-08 -0.047790144 -0.10915372 1.4808012e-17 -7.5377747e-17 0.11722518 2.4396709e-11
-0.10830599 0.05466966 0.07370976 4.6696427e-05 0.069143474 -2.1742227e-18 -0.13224746 0.08726088
0.00015826646 -0.0004096282 -2.815829e-18 -0.072743416 1.5817482e-18 -0.10044385 0.13815668 -0.10813876
0.09494195 2.9178264e-19 -0.0052761217 -0.0025499144 -0.03207752 3.777844e-18 0.07543511 -0.07273272
-1.3313406e-17 -1.0013596e-12 1.6657222e-09 0.108148485 0.05430718 -6.3354444e-10 7.8388325e-16 -1.2527877e-07
-0.0015779771 0.14233208 -0.14855982 0.05441368 -3.9213358e-08 4.7003982e-17 2.2486634e-18 0.007826877
00000000: 6e09 91a7 c8ac 673c 5ed2 603d e5c9 073e
00000010: 1a6e b33d 5ec3 e32b c643 2828 a030 912a
00000020: d121 d93d 917e ef30 504e 733d c503 503d
00000030: 3c5a 17a2 2643 2d3d 2cce b4bd 9f97 9fb7
00000040: 6032 8331 f312 cfbd 439b 072e f4fa caa0
00000050: 3466 d325 ccfb 89b8 aed5 a93d 1a89 d223
00000060: 061e 2e3c 7d98 a33d ee27 08a5 fdfb 8fbc
00000070: 90b9 0fb2 f9e7 de3d 198a 7bbd 4733 ccbd
00000080: 51e9 1e23 3efc b73d 1415 bc3b e303 7026
00000090: 7fba 16be 22c1 613d 20b9 273d 0f5b 4127
000000a0: fae9 0d3e 2134 4525 2c4f 3c3d f0d5 79b2
000000b0: 48a1 0132 18b4 7dbd 3df0 02be b5ba 9a3c
000000c0: 4178 b3bd 72fd efbd 1ccb 0bb2 8ce4 99a1
000000d0: 2762 06bd caab 413d 81df 5e3d ea45 5bbd
000000e0: cb91 86bd a78e ce3d 247a 0ebd f05a bb3d
000000f0: eb5f 922e dbcf 8830 dc71 3d37 1f18 e9bd
00000100: ee30 d822 4051 783d 3ae1 5625 29c8 6522
00000110: 2daa 1124 9b84 71bd a047 812a a801 0b3e
00000120: 065d 9822 2e85 52b7 314a 4637 7c05 03be
00000130: 7afb c82f 8fc3 8b3d 9bbf 1d2a 4a7c 1339
00000140: d438 5c3d ee66 1833 da52 34bd 90ac 0d3e
00000150: cd79 8324 e666 0033 c002 23be d380 7ea1
00000160: 1d67 85bd e6a2 da3d bc22 7f3d cd42 e937
00000170: c6b9 a63d 1fab 3aa7 9352 4fbd e42b 893d
00000180: b125 8f38 0d77 fc39 948d 6a23 4c29 06be
00000190: 88d0 01a7 c398 babd 89e3 19be 0efc 85bd
000001a0: 5a7d 133d 6fbe d223 4021 963d a67c ad3c
000001b0: 6c02 dcbd f41b beb1 3866 8b3d 08c5 863c
000001c0: 8de1 8d2b 10c4 92b1 c315 f6b1 7f0a 90bc
000001d0: eb48 ee3d 62b4 ca2c 2a3f f3a5 8438 24b5
000001e0: 262b 8c3a 8eeb dc39 1f1a 8fbd 5528 ab3d
000001f0: 54e8 5b2a b82c ea21 e9d7 83a4 73c3 e5bb
00000200: be34 b39f 5611 d0ba c429 1d3e 508c 02be
00000210: e7ae 81bd 51ac b0a1 c2cd 41a4 e3ec 3231
00000220: add3 a23d 339d 882a 563f e53d b9c6 fcbb
00000230: 93e6 c527 0433 45bc ee01 c83d d06f 74b7
00000240: a824 9da3 44c1 bf3c 82d1 3122 3982 76ae
00000250: 34f1 25ac db57 40b8 2bb9 2ebd 08b1 18ae
00000260: 2ed3 aa3d 7618 e7bd 76cc 03b1 ec2f 013e
00000270: 8c14 a4a2 d9b4 fb3d 5736 f2bd eb6b acbd
00000280: 1a18 cda2 76e6 c33d 92a3 f3bd 0c4c 8e2e
00000290: 1670 39bd d078 98bd 1d0f 183e c492 4823
000002a0: c967 cebd 5aed 2824 d7e1 89ba 9a74 2433
000002b0: cee4 3f2f 7a71 0f3e ec65 c6bd 0096 ac3d
000002c0: 0c76 2cbd 5cd3 e2bd 4807 47a3 b20e eaa7
000002d0: 788a cabd 5c04 b8bd bc1a 943b 1961 5cbc
000002e0: 9ddf ff3d 3abb f3bd 945c a8bc 517c c73d
000002f0: d4d8 03a8 ba16 2e22 ea63 41b5 86a1 12be
00000300: 9e10 cd24 79f4 353d 02a2 23a1 91d8 3e2c
00000310: 17c1 8f20 1a35 fbbd 427b b6b2 7ac3 df3c
00000320: 3a5f 33a7 c817 a3b7 db2b 07b8 f2d0 fd3d
00000330: 5ad0 66b1 8a02 8abd bada 32b3 feda 9d3c
00000340: 93a7 02be 4db5 8e33 99bf 43bd fc8b dfbd
00000350: 6e94 8823 2bcf ada4 c113 f03d 8198 d62d
00000360: 88cf ddbd 4bed 5f3d 25f5 963d e8db 4338
00000370: 189b 8d3d e86d 20a2 e16b 07be d5b5 b23d
00000380: 54f4 2539 5ec3 d6b9 82c5 4fa2 80fa 94bd
00000390: c26c e921 81b5 cdbd f278 0d3e db77 ddbd
000003a0: ed70 c23d f23c ac20 51e3 acbb 771c 27bb
000003b0: b863 03bd ba60 8b22 b97d 9a3d e4f4 94bd
000003c0: c896 75a3 c8ed 8cab 64ef e430 f47c dd3d
000003d0: 3571 5e3d ba25 2eb0 60f0 6126 5e84 06b4
000003e0: 20d4 ceba 80bf 113e 1120 18be e1e0 5e3d
000003f0: 8b6b 28b3 82c4 5824 0dec 2522 4d3c 003c

node_convs.1.bias f4 [128]
0.0032790264 0.0 0.011315417 -0.0095653655 -0.004281436 -0.004445589 -0.0025668857 0.0
7.691182e-05 -2.3064645e-06 -0.0068907198 -0.002151435 -0.00031676624 0.0 -0.010293497 -0.0026221627
-0.00411342 -0.0019165293 0.0 -0.00983294 -0.0042929463 -0.0011738603 0.00060406985 -0.0032342968
0.0003829372 -0.015766567 -0.0006409594 0.0 -0.005654078 -0.008781254 -3.4471504e-16 0.006291636
-0.0035054737 -0.0053977305 -0.009795096 -0.009291774 -0.0041560116 0.0033612547 0.0063577155 -0.004250927
0.0 -0.00018455368 -3.14879e-10 0.0019583795 -0.012255484 2.6141443e-11 -0.0010083255 -0.010885971
-0.0044447696 -0.011720041 -5.074022e-09 -0.005250478 -0.0019023154 -0.005571486 -0.009998233 -7.3916867e-06
-0.008453307 -0.011398927 -0.008648212 -5.1090537e-06 -3.2842896e-15 -0.0025998189 -5.3238674e-13 -0.0059525813
-0.001576084 -0.012344362 -0.006287447 7.3468277e-07 -0.0042894734 -0.0026322256 0.0046461895 -0.012464882
-5.056566e-09 -0.0029333916 -0.008383481 0.0036586788 -0.0060252 -3.869472e-06 0.007978375 -0.0068373964
-0.0052012797 -0.0027261719 -0.0036050458 5.1299577e-12 -0.0081171235 0.0 0.0 0.0
-0.00034834413 -0.019766258 -0.012242125 -0.00019975877 -0.0067290473 -0.006275242 0.0 -0.004713026
-1.5901489e-07 -0.009096266 0.0084380815 -0.0015364647 -0.011572533 -0.007296495 -0.0077637834 -0.010528487
-6.914602e-07 -0.004112559 -0.0027045826 -2.1814377e-07 -6.5454477e-09 -0.008075531 0.00049996626 -0.013445028
-0.00569514 -0.0036021129 -0.0054184543 -0.0056797788 0.004524496 -3.1455573e-05 0.0044318573 -0.0075730593
0.0 -0.013526851 -4.800739e-15 -0.007847158 -0.0071894005 -0.011893384 -0.0073393886 -0.003386176
00000000: efe4 563b 0000 0000 4c64 393c 0db8 1cbc
00000010: 4a4b 8cbb 4eac 91bb 3239 28bb 0000 0000
00000020: b84b a138 c2c8 1ab6 8ccb e1bb 17ff 0cbb
00000030: a513 a6b9 0000 0000 0ea6 28bc 97d8 2bbb
00000040: dec9 86bb 0d34 fbba 0000 0000 571a 21bc
00000050: d8ab 8cbb 37dc 99ba 715a 1e3a 7ff6 53bb
00000060: f6c4 c839 e328 81bc 0f06 28ba 0000 0000
00000070: d845 b9bb 40df 0fbc f6b6 c6a5 112a ce3b
00000080: 17bc 65bb 72df b0bb 9c7b 20bc 863c 18bc
00000090: 272f 88bb 7f48 5c3b 6254 d03b 5c4b 8bbb
000000a0: 0000 0000 c084 41b9 481b adaf 2858 003b
000000b0: 3acb 48bc 4cf1 e52d ca29 84ba 125b 32bc
000000c0: 6ea5 91bb 6a05 40bc 9257 aeb1 340c acbb
000000d0: 1d57 f9ba 0391 b6bb a1cf 23bc 1b06 f8b6
000000e0: bd7f 0abc 91c2 3abc 3bb1 0dbc 706e abb6
000000f0: 73a8 6ca7 b961 2abb 82da 15ab df0d c3bb
00000100: 9a94 ceba 0240 4abc ee06 cebb 0437 4535
00000110: b68e 8cbb 6b81 2cbb 103f 983b 8139 4cbc
00000120: 06be adb1 253e 40bb de5a 09bc 72c6 6f3b
00000130: 0a6f c5bb 83d6 81b6 bbb7 023c 3d0c e0bb
00000140: 7f6f aabb 93a9 32bb a242 6cbb 8d7e b42c
00000150: affd 04bc 0000 0000 0000 0000 0000 0000
00000160: f5a1 b6b9 d9ec a1bc 3293 48bc 5676 51b9
00000170: 577f dcbb 8ca0 cdbb 0000 0000 ba6f 9abb
00000180: aebd 2ab4 8108 15bc e13f 0a3c 3363 c9ba
00000190: b99a 3dbc 7017 efbb 5667 febb ad7f 2cbc
000001a0: c89c 39b5 a5c2 86bb 5e3f 31bb e73a 6ab4
000001b0: 5ee6 e0b1 3b4f 04bc 2b10 033a 8948 5cbc
000001c0: 4c9e babb 6d11 6cbb 4a8d b1bb 701d babb
000001d0: 3942 943b 2aef 03b8 1d39 913b 6d27 f8bb
000001e0: 0000 0000 ba9f 5dbc 00f7 aca7 5e91 00bc
000001f0: 1095 ebbb 78dc 42bc 417f f0bb 9bea 5dbb

node_convs.1.lin.weight f4 [128, 128]
0.015824266 0.103518315 0.0045304983 0.093018375 1.219309e-07 2.3907716e-18 -1.7552768e-11 1.927491e-05
0.115955345 -0.13256727 -0.1265094 -3.7015e-05 7.54369e-08 -0.051873665 7.190728e-13 -1.92542e-18
1.1570251e-09 0.028726177 -4.878665e-08 0.13872162 0.047414385 -0.0018245969 -0.03660399 -0.014428168
0.051124383 0.0050232033 -0.055476364 -0.025230195 -0.08201989 -0.015442369 0.06075104 0.12442702
-0.09133306 0.02802068 2.7810643e-17 2.5780776e-07 0.08839927 0.12659357 -3.589427e-11 -6.111433e-11
1.57271e-17 0.036172885 0.0067138337 -0.017127171 4.359266e-09 -0.12277703 0.006276075 -0.042131644
-7.2270664e-17 0.12172186 0.0015221485 -0.06506839 0.12315354 -2.384919e-08 -0.0072747655 -0.124992795
-0.00045914014 -2.5795753e-13 0.009328693 -0.066696286 2.1291126e-16 6.3711597e-18 -0.09009344 -0.12445985
-0.0038370602 3.734884e-13 -5.5364086e-07 -0.13167799 0.054621294 -7.967872e-17 -0.07603877 0.15567732
-2.2105363e-16 -3.574786e-08 0.027682042 -0.0017610973 -0.09201053 0.032990735 5.189656e-07 0.0019041937
0.014421467 4.694578e-11 -8.112944e-05 -0.13650943 0.0049940264 0.11415208 -0.0052713067 0.13221037
-0.039185956 -0.07418265 0.14219171 -0.049416125 0.112828165 -0.00016205947 -0.097989574 -0.13093174
-0.014594871 -0.08044611 0.114378534 -4.9580663e-06 0.12916806 -2.1135487e-17 0.03750656 0.008468995
2.6647944e-13 -0.035369128 0.07018703 0.016443409 0.13747166 1.9480383e-19 0.03241332 -1.9075127e-08
-0.00031130688 -0.012955063 0.0046281805 -0.04708981 -3.3575927e-18 -0.00042328468 -0.028648965 -1.0470826e-17
-0.116279356 -0.00011239179 -2.3602817e-09 -0.01271415 -0.112398 -0.12791035 -1.5402007e-13 2.1068551e-08
1.012101e-15 2.384615e-18 2.7492529e-11 -1.9058067e-14 -6.5774166e-12 2.5169848e-13 1.883222e-08 -3.9900682e-18
-4.1787712e-17 -1.0748774e-15 4.660206e-17 -9.794654e-18 8.7664585e-18 -6.865925e-19 7.0241266e-17 2.4561593e-17
2.6816954e-12 -4.3177413e-18 -2.3303302e-11 5.8315204e-19 5.777052e-18 4.193524e-14 2.0423995e-18 3.25135e-18
-3.4554446e-18 1.0812935e-11 1.0019463e-18 -9.373588e-19 6.807512e-19 3.3678767e-19 5.6151613e-18 2.564898e-12
2.2718698e-11 -8.332542e-21 -3.2086726e-19 9.87109e-18 -1.0298675e-17 1.2645608e-18 1.0097208e-11 2.442527e-17
3.5774627e-18 3.4655055e-14 -6.352231e-11 -2.1778213e-11 -2.5542734e-16 1.2115184e-16 -1.0969193e-16 -2.4119656e-20
1.331544e-17 6.315129e-11 -5.7436456e-09 -2.1299955e-19 1.8935972e-18 9.630943e-15 -1.7607003e-16 -5.4158342e-15
2.6142187e-18 -5.679784e-10 1.086687e-18 2.428019e-16 1.5988414e-19 -5.0548106e-18 4.2298292e-16 2.2859209e-18
-1.2543082e-14 9.915133e-12 -4.5329635e-16 -2.99364e-08 -5.1620025e-20 1.2643633e-17 1.0367717e-17 -4.9957455e-10
-4.8824985e-12 -1.0104928e-15 1.3013671e-17 7.91325e-15 3.0144172e-18 -4.0687525e-18 -1.4058913e-16 2.4641692e-17
-5.4619968e-14 -7.4207903e-19 2.4732703e-16 4.0689402e-20 -1.1748446e-18 -1.1837685e-16 -7.0871736e-20 2.519613e-18
-1.3169933e-15 2.8624002e-15 -4.4492745e-16 3.5005902e-16 2.8706687e-18 2.643631e-12 -2.3604812e-20 2.0535492e-12
8.989037e-18 -3.607075e-20 -3.3684167e-13 -8.9335506e-20 -7.024506e-15 -9.234709e-17 -6.8915825e-17 -1.3568036e-15
-3.4573953e-16 2.722578e-12 -3.752209e-17 9.599458e-14 -7.737818e-18 2.526782e-19 6.3227236e-11 -1.2001229e-08
5.4190007e-11 3.0673628e-20 1.426097e-18 -4.636328e-09 -1.7744366e-16 -1.3176868e-19 -1.5715828e-11 8.3195174e-16
-1.04188676e-17 -1.533589e-08 -3.1609142e-18 -9.0621565e-18 3.0205025e-18 -5.001573e-19 8.821455e-17 -1.5105935e-18
00000000: e4a1 813c 6901 d43d 9374 943b 6b80 be3d
00000010: 1cec 0234 6668 3022 5265 9aad 8eb0 a137
00000020: ff79 ed3d b7bf 07be ae8b 01be 8e40 1bb8
00000030: e0ff a133 7b79 54bd a866 4a2b 2812 0ea2
00000040: 3405 9f30 2953 eb3c 7d89 51b3 0a0d 0e3e
00000050: 9635 423d 5027 efba 11ee 15bd 1f64 6cbc
00000060: cd67 513d af99 a43b 2f3b 63bd 8eaf cebc
00000070: 0bfa a7bd fd01 7dbc 15d6 783d 98d3 fe3d
00000080: d40c bbbd a08b e53c 0341 0024 d468 8a34
00000090: ad0a b53d bfa1 013e 5bdd 1dae 4f64 86ae
000000a0: 910e 9123 052a 143d b8ff db3b 484e 8cbc
000000b0: 82c8 9531 8672 fbbd 88a7 cd3b 3b92 2cbd
000000c0: 12a5 a6a4 4f49 f93d d482 c73a 9342 85bd
000000d0: ec37 fc3d ecdc ccb2 2861 eebb 39fc ffbd
000000e0: bfb8 f0b9 9937 91aa 60d7 183c 1098 88bd
000000f0: 5078 7525 e70d eb22 e982 b8bd cee4 febd
00000100: 3077 7bbb 5a41 d22a e99d 14b5 98d6 06be
00000110: 94ba 5f3d 04ba b7a4 37ba 9bbd e069 1f3e
00000120: 84db 7ea5 3089 19b3 73c5 e23c 9fd4 e6ba
00000130: 0470 bcbd 4b21 073d 0b4f 0b35 2396 f93a
00000140: 0448 6c3c 4078 4e2e 0924 aab8 21c9 0bbe
00000150: eea4 a33b 91c8 e93d edba acbb 2862 073e
00000160: 7481 20bd 13ed 97bd b49a 113e 9068 4abd
00000170: 7412 e73d 82ee 29b9 c2ae c8bd f812 06be
00000180: 531f 6fbc eec0 a4bd 4b3f ea3d 775d a6b6
00000190: a244 043e c2f0 c2a3 7ba0 193d 8ac1 0a3c
000001a0: bc03 962a 38df 10bd 38be 8f3d 54b4 863c
000001b0: 5fc5 0c3e d8fb 6520 d4c3 043d a6da a3b2
000001c0: e736 a3b9 7941 54bc fea7 973b 3fe1 40bd
000001d0: 22bf 77a2 4fec ddb9 3cb1 eabc 1427 41a3
000001e0: df23 eebd e2b3 ebb8 8432 22b1 034f 50bc
000001f0: ec30 e6bd eefa 02be 4369 2daa 3cfa b432
00000200: f0db 9126 1bf4 2f22 acd3 f12d e9a8 aba8
00000210: 1a6c e7ac 93b1 8d2a 7dc4 a132 2135 93a2
00000220: 39b6 40a4 fae7 9aa6 00ea 5624 f2ad 34a3
00000230: 6eb6 2123 76a5 4aa1 20f7 a124 6c8a e223
00000240: 21b5 3c2c ea4b 9fa2 5ffa ccad b91d 2c21
00000250: b722 d522 0adc 3c29 d6b3 1622 44e8 6f22
00000260: 81f7 7ea2 2139 3e2d 76dc 9321 6a54 8aa1
00000270: 1bec 4821 eacd c620 b329 cf22 187d 342c
00000280: f6d5 c72d b365 1d9e 1768 bda0 e816 3623
00000290: 1efa 3da3 c29d ba21 c8a1 312d 8a48 e123
000002a0: 2efc 8322 8f12 1c29 e2af 8bae 2d90 bfad
000002b0: 6c3e 93a5 b6ad 0b25 b0ee fca4 c0cd e39e
000002c0: 63a0 7523 04df 8a2e a459 c5b1 2a77 7ba0
000002d0: 0ab9 0b22 e37e 2d28 b3fe 4aa5 4120 c3a7
000002e0: 32e5 4022 ed1f 1cb0 e05d a021 3cf7 8b25
000002f0: 04c2 3c20 567d baa2 43d5 f325 d3ab 2822
00000300: c2f4 61a8 ca6d 2e2d 5ea7 02a6 6b93 00b3
00000310: c8c4 739f de3b 6923 2940 3f23 6f52 09b0
00000320: a3c9 abac 9ba0 91a6 530f 7023 6d8d 0e28
00000330: bb6c 5e22 481c 96a2 9616 22a5 8d47 e323
00000340: 89fc 75a9 e805 5ba1 0793 8e25 7826 401f
00000350: 6060 ada1 ae7a 08a5 5657 a79f 25ea 3922
00000360: 7acc bda6 f741 4e27 da3d 00a6 98cb c925
00000370: 66d1 5322 6c07 3a2c eff0 de9e 7481 102c
00000380: 87d1 2523 dc56 2a9f 00a0 bdaa 00f0 d29f
00000390: a215 fda7 1af0 d4a4 b9e8 9ea4 3889 c3a6
000003a0: 264e c7a5 9b95 3f2c 440a 2da4 1c29 d829
000003b0: d0bc 0ea3 a627 9520 c509 8b2e f72d 4eb2
000003c0: 8654 6e2e 24da 101f 6c74 d221 934d 9fb1
000003d0: 2094 4ca5 a490 1ba0 e63c 8aad 34cb 6f26
000003e0: b631 40a3 fbbb 83b2 fb3b 69a2 d32a 27a3
000003f0: aedf 5e22 d19e 13a1 ae68 cb24 9cec dea1

node_conv_final.bias f4 [128]
-0.005330461 -0.010554143 -0.0061579724 -0.011783903 -0.012014582 -0.013025984 -0.0163833 -0.000420312
-0.010506423 0.0059941364 0.0 -0.008103509 -0.0056540603 -0.0027636406 -0.0014050545 -0.0069075814
0.0 -0.008914437 -0.006674716 -0.017234102 -0.0064766025 -0.005369052 -0.015682166 -0.004956881
-0.008123263 0.006554475 -0.0040332805 -8.976253e-05 -0.005571402 0.0010396253 9.791985e-07 -0.0041852845
-0.00648312 -0.00022321222 -0.008174401 -0.020322965 0.0038690416 1.08526926e-07 -0.0029322132 -1.5769534e-13
-0.0076763607 -0.015364374 -2.9156061e-05 -0.006162595 0.0 -0.000876497 -3.3091776e-08 -0.0117614865
-0.014539824 -0.014690873 0.0023481827 -0.0009708221 0.003682086 -0.010212215 -0.009716042 -0.0068675964
-0.0114540635 -0.005578532 -0.011960518 -0.0047977576 -0.006716227 0.0052345726 0.0044280407 -0.011080938
-0.012565772 -0.01645955 -0.012295873 -0.018528933 -0.009095606 0.0043844637 -0.0044028917 -0.0017396589
-0.016485693 -0.0056609865 0.00677091 -0.011800175 -0.0062733223 -0.011043797 -0.016304914 0.0054584676
-0.00072944816 -0.0027205124 -0.01856669 -0.0015908898 -0.008016605 -0.009124738 -0.012507159 -0.0026555348
-0.0010478756 -0.00020314926 0.0 -0.007887625 0.010654629 0.020671746 -6.0159575e-09 -0.008900927
-0.006108025 -0.0032063809 -0.0054537617 -0.008250421 -0.0016923003 -0.00061640475 -0.0057727457 -0.003757821
-0.008546044 0.0042294865 -0.00069415 -0.0106584355 -0.009117537 -0.0041939826 -0.004008041 -0.020092553
-0.0030001488 -0.008696891 -0.012233708 0.0016113006 0.0001528047 -2.4190676e-09 0.0 0.0010275068
-0.0029013935 0.0008348026 -0.018483588 -0.00997625 -0.009595265 0.0 -0.019990247 -0.013112023
00000000: 26ab aebb 49eb 2cbc d1c8 c9bb 4611 41bc
00000010: cfd8 44bc f06a 55bc 4536 86bc 525d dcb9
00000020: 2223 2cbc 766a c43b 0000 0000 95c4 04bc
00000030: b245 b9bb 321e 35bb ce29 b8ba fe58 e2bb
00000040: 0000 0000 dc0d 12bc 93b7 dabb 882e 8dbc
00000050: ae39 d4bb dfee afbb e377 80bc 556d a2bb
00000060: 6f17 05bc ecc6 d63b 9c29 84bb e43e bcb8
00000070: 4f90 b6bb 0944 883a 016d 8335 b624 89bb
00000080: 5a70 d4bb 130e 6ab9 eced 05bc 597c a6bc
00000090: bf8f 7d3b 4f0f e933 602a 40bb 968c 31aa
000000a0: fb89 fbbb dbba 7bbc 2a94 f4b7 98ef c9bb
000000b0: 0000 0000 b8c4 65ba cb20 0eb3 40b3 40bc
000000c0: 7138 6ebc fdb1 70bc f8e3 193b c57e 7eba
000000d0: 274f 713b 2251 27bc 0930 1fbc 9309 e1bb
000000e0: d3a9 3bbc 1ecc b6bb 0cf6 43bc 8236 9dbb
000000f0: cc13 dcbb c786 ab3b 1919 913b d38c 35bc
00000100: abe0 4dbc 2ed6 86bc a174 49bc fdc9 97bc
00000110: bd05 15bc 8cab 8f3b 2246 90bb 4405 e4ba
00000120: 010d 87bc cc7f b9bb 83de dd3b 8555 41bc
00000130: 7190 cdbb 0bf1 34bc e291 85bc f2dc b23b
00000140: 7038 3fba a04a 32bb 2c19 98bc 6785 d0ba
00000150: 1458 03bc ed7f 15bc d4ea 4cbc 7b08 2ebb
00000160: df58 89ba 7704 55b9 0000 0000 193b 01bc
00000170: c190 2e3c cb57 a93c ecb4 ceb1 32d5 11bc
00000180: d425 c8bb 2522 52bb 78b5 b2bb c62c 07bc
00000190: 2dd0 ddba 3996 21ba 4d29 bdbb c645 76bb
000001a0: b504 0cbc 8197 8a3b 9ef7 35ba b8a0 2ebc
000001b0: b961 15bc ad6d 89bb e355 83bb 2399 a4bc
000001c0: 259e 44bb 687d 0ebc e46f 48bc 4732 d33a
000001d0: 333a 2039 b03c 26b1 0000 0000 68ad 863a
000001e0: 4e25 3ebb a7d6 5a3a e56a 97bc 6d73 23bc
000001f0: 7535 1dbc 0000 0000 96c2 a3bc cfd3 56bc

node_conv_final.lin.weight f4 [128, 128]
-0.023364212 3.3760097e-14 0.0046438794 -0.0061467313 -2.1766493e-08 1.6471765e-19 -6.349258e-15 7.315067e-16
9.576463e-15 7.61417e-18 -0.012656821 -9.9829376e-18 -9.309298e-14 -1.4847071e-13 0.011356641 0.0028503644
-7.212859e-18 -7.698962e-15 1.6697104e-20 6.252881e-07 0.0016988252 -2.7919612e-18 0.07675879 0.07737865
5.714153e-18 -0.0053617386 0.033749677 2.8805102e-15 -1.227529e-19 0.009100974 1.7464251e-16 -0.013144946
2.8463616e-18 4.3476653e-16 -6.065714e-08 -0.01006505 7.974543e-06 0.017728297 -0.079536736 -0.003959542
-2.890165e-15 1.9044052e-12 -4.345063e-12 -0.05410958 -7.27168e-05 2.412862e-15 2.851352e-15 -9.234681e-05
-8.251854e-05 -0.00289099 -8.906641e-09 -0.028138848 -2.558016e-12 -0.027274963 -3.3323133e-08 -2.8930522e-18
6.7772174e-19 0.04843052 -8.246104e-07 0.0013105872 1.908787e-19 1.690103e-09 -1.1352264e-12 -4.137091e-19
-2.0393622e-13 -0.017350417 6.0179664e-05 -7.3663874e-14 0.018244427 -0.0083333915 -0.0007135899 -0.0020071715
8.778001e-18 -2.6160816e-14 0.08181325 -0.026384758 -0.07469349 -2.1997983e-12 0.037255716 0.017778829
0.012565705 -1.0172761e-18 -0.009442691 -1.782087e-17 -0.014312969 -7.711575e-16 -8.9285725e-09 2.2507297e-08
3.662032e-20 -0.016499689 6.3750386e-17 1.8136678e-17 1.2243384e-18 3.1424388e-09 3.5976732e-12 -0.06821248
-3.286457e-16 -0.03596737 -0.023660988 -0.035124928 -0.0053734262 0.039219588 -0.0016675735 0.00065393193
-5.5932026e-18 -2.0243746e-16 0.02084844 -1.6011896e-17 2.5490057e-19 -2.131955e-15 -0.011944299 5.7037937e-18
-0.0019907223 -0.000109314045 2.174673e-14 1.620401e-06 -0.022450548 -1.9888037e-17 -0.091436945 -3.6593777e-16
-1.9616506e-11 -0.05110783 9.581717e-15 6.381321e-06 2.1869634e-13 -1.4570766e-15 -0.06685416 0.010060978
-0.06914123 -1.2479425e-17 -0.034344904 0.09226621 0.0075228857 8.195953e-19 -0.00011853396 8.866241e-19
-0.0072684954 1.5687538e-09 0.07413812 0.040409848 -0.019937478 -2.7653213e-11 0.047881838 -0.023023495
-8.536315e-16 -0.011141089 9.602222e-12 0.01264094 0.004645187 3.412314e-05 0.014138651 0.07604645
0.0016368557 -0.0035976379 0.10110479 -2.9064516e-11 -1.947974e-15 -0.0073992205 1.7566343e-15 0.03767626
-3.8494483e-07 -0.026742732 0.009512244 0.004724069 -0.034558177 0.04650333 0.038394663 0.10246487
-5.4434703e-11 0.0035259519 -4.053511e-08 -0.06386469 -0.013808242 1.828955e-11 -3.509406e-17 -0.05442271
0.09390752 -0.064164065 -6.207429e-05 -0.1292479 0.000805135 -0.12975885 0.0074916757 1.6884359e-10
-0.061472192 0.033775087 0.050053176 0.08249784 -1.7024544e-13 0.11490288 -1.5454855e-16 0.0025628933
0.008381124 0.12648311 0.004297482 -4.059947e-06 -0.04748486 -0.045945987 -0.03358499 -0.08584933
-2.8430682e-15 0.018314116 -0.005843686 -0.027617026 -0.08571537 -5.4461846e-10 0.024847923 0.049027603
-0.030806635 0.0053405785 -0.0748029 3.2799832e-16 -0.016621217 -1.16116575e-10 -2.02966e-17 2.4314364e-10
0.0016857451 -0.039441194 0.004809271 -0.0011571002 0.067077115 4.0397236e-07 2.717584e-18 -0.07877052
-5.012569e-12 0.0423325 -0.1380736 -0.12475812 -0.04062252 -0.04294085 -0.029148538 -0.0999955
-0.00010776439 -0.01109758 -0.10642692 -9.807603e-06 -6.565464e-07 7.058855e-05 -0.029719794 0.004420288
-0.037855808 0.0094804475 0.008130541 0.007277728 0.079610005 -0.0037489578 -0.010208599 -0.021199781
-1.9363103e-18 0.07105878 -1.1331403e-07 -0.0029102275 0.045173474 -0.01782579 0.05352398 -0.13511768
00000000: 4e66 bfbc be0a 1829 af2b 983b 856a c9bb
00000010: 06f9 bab2 db76 4220 92c1 e4a7 abd7 5226
00000020: a483 2c28 e774 0c23 8e5e 4fbc 1727 38a3
00000030: 73a0 d1a9 c529 27aa 3411 3a3c 2ecd 3a3b
00000040: c30d 05a3 32b1 0aa8 1fb3 9d1e 79d9 2735
00000050: 1dab de3a a802 4ea2 b633 9d3d b378 9e3d
00000060: a6d0 d222 86b1 afbb 1a3d 0a3d 0990 4f27
00000070: caeb 10a0 401c 153c 5f59 4925 e65d 57bc
00000080: 4006 5222 37a0 fa25 9e42 82b3 e1e7 24bc
00000090: 67ca 0537 ef3a 913c 28e4 a2bd 0cbf 81bb
000000a0: 2242 50a7 b702 062c d9e0 98ac 02a2 5dbd
000000b0: 897f 98b8 73dd 2d27 2976 4d27 51aa c1b8
000000c0: ce0d adb8 c476 3dbb d203 19b2 7183 e6bc
000000d0: 1f01 34ac be6f dfbc 2c1f 0fb3 3678 55a2
000000e0: 3507 4821 155f 463d cc5a 5db5 02c8 ab3a
000000f0: 8c59 6120 3649 e830 d7c4 9fab f435 f4a0
00000100: 9d9c 65aa 7622 8ebc 6c69 7c38 55e0 a5a9
00000110: 5675 953c c788 08bc 3510 3bba c08a 03bb
00000120: f0ec 2123 bca2 eba8 b58d a73d d924 d8bc
00000130: e7f8 98bd 0bcc 1aac 7399 183d e8a4 913c
00000140: 63e0 4d3c 9b1f 96a1 84b5 1abc 575e a4a3
00000150: f180 6abc 6145 5ea6 4764 19b2 1256 c132
00000160: 40ef 2c1f 5b2a 87bc 96ff 9224 0548 a723
00000170: 32ae b421 5ef2 5731 eb29 7d2c fcb2 8bbd
00000180: 8c73 bda5 8552 13bd b0d4 c1bc 28df 0fbd
00000190: 9113 b0bb b8a4 203d 7b92 daba a16c 2b3a
000001a0: 4e5a cea2 fe64 69a5 59ca aa3c 05af 93a3
000001b0: 7c77 9620 a19f 19a7 05b2 43bc cf6e d222
000001c0: c776 02bb 883f e5b8 8ce0 c328 8e7c d935
000001d0: 36ea b7bc 4d6f b7a3 4b43 bbbd e2f2 d2a5
000001e0: 728c acad 7256 51bd df9b 2c28 211f d636
000001f0: ee3a 762a a3fc d1a6 d5ea 88bd cdd6 243c
00000200: eb99 8dbd 6b34 66a3 3ead 0cbd 11f6 bc3d
00000210: 8a82 f63b dfe6 7121 6f95 f8b8 b6d7 8221
00000220: 8f2c eebb 9e9b d730 bad5 973d cc84 253d
00000230: ec53 a3bc 803d f3ad bf1f 443d c59b bcbc
00000240: e30a 76a6 1d89 36bc 90ec 282d f21b 4f3c
00000250: a736 983b 711f 0f38 cda5 673c 3ebe 9b3d
00000260: c38b d63a 59c6 6bbb 0710 cf3d 79a7 ffad
00000270: c75d 0ca7 2975 f2bb 5e28 fd26 6c52 1a3d
00000280: 6aaa ceb4 9313 dbbc 3ed9 1b3c 5dcc 9a3b
00000290: e08c 0dbd 477a 3e3d b943 1d3d 1ad9 d13d
000002a0: 0768 6fae a813 673b d318 2eb3 7ecb 82bd
000002b0: f73b 62bc 68e0 a02d c1d7 21a4 59ea 5ebd
000002c0: 9652 c03d 7368 83bd e12d 82b8 9059 04be
000002d0: b20f 533a 81df 04be bb7c f53b 3fa5 392f
000002e0: 44ca 7bbd bf57 0a3d 8f04 4d3d a1f4 a83d
000002f0: e8ad 3faa 3352 eb3d ae2e 32a5 37f6 273b
00000300: fb50 093c ca84 013e e4d1 8c3b ae3a 88b6
00000310: 7c7f 42bd dc31 3cbd 6a90 09bd c6d1 afbd
00000320: 5add 4ca7 7c07 963c 647c bfbb 1a3d e2bc
00000330: 8a8b afbd 1eb4 15b0 df8d cb3c 2bd1 483d
00000340: 325e fcbc 0500 af3b 4332 99bd 0214 bd25
00000350: 3829 88bc d257 ffae fe33 bba3 6dab 852f
00000360: 38f4 dc3a 178d 21bd 1797 9d3b d7a9 97ba
00000370: ba5f 893d 8ae1 d834 b685 4822 7052 a1bd
00000380: 355d b0ac d864 2d3d 2a63 0dbe 2f81 ffbd
00000390: cd63 26bd bfe2 2fbd eac8 eebc 71ca ccbd
000003a0: 91ff e1b8 a0d2 35bc 5bf6 d9bd 568b 24b7
000003b0: 863d 30b5 f008 9438 ed76 f3bc 10d8 903b
000003c0: b10e 1bbd e153 1b3c f635 053c 027a ee3b
000003d0: 920a a33d 13b1 75bb f841 27bc 2aab adbc
000003e0: dedf 0ea2 4487 913d 0c57 f3b3 84b9 3ebb
000003f0: d207 393d 6407 92bc f63b 5b3d 4a5c 0abe

edge_encoder.0.weight f4 [128, 4]
0.29164836 0.07661066 0.21990266 0.34358802 -0.021871634 4.5026916e-12 0.029804684 -3.5802405e-17
-0.035041034 -1.3342e-16 0.0591006 0.00048995594 -0.018240776 0.034035325 9.325768e-18 -7.492076e-18
-0.009664313 3.8979996e-07 4.4873932e-08 2.1474554e-07 0.3291752 0.24657485 -0.12150507 -0.23264241
-0.00828188 -1.936316e-05 -6.307054e-06 0.040540166 -5.950232e-08 9.241588e-17 -0.019952875 5.5758507e-13
-0.002165067 -1.6106407e-08 0.0039012101 2.8864708e-05 0.29891637 -0.204556 -0.7361039 -0.36423746
0.449661 -0.25206512 0.0968501 -0.60887647 -0.0020647969 4.7340816e-07 -0.021027623 -1.556504e-05
0.0022752085 0.28624105 0.94443095 0.5395229 0.034305837 -0.2318464 -0.17527795 -0.18754962
0.11226116 -0.13589945 -0.22653662 0.3442243 -0.023487864 -0.0022605294 1.1552411e-09 2.7794581e-16
-0.010602067 -8.372932e-09 0.022098742 -6.1561705e-18 -0.0071351393 0.2506058 0.7262157 0.29465583
-0.09523053 -0.00022203501 0.12989989 0.057544623 0.02892402 0.05665382 -0.59616774 0.072754376
0.27378625 0.25847182 -0.31497335 0.11001461 -2.578902e-05 -0.014366313 0.00021525478 -0.014328953
-7.163346e-05 3.1196816e-16 0.006120219 7.9662946e-17 -0.015038512 -0.029453307 -0.04213386 -0.0036898337
0.36727187 0.31328693 -0.13336754 -0.21863995 0.32311922 0.14744462 -0.075047895 0.0955253
0.023601478 0.18068242 -0.30641186 -0.7765783 0.0007630304 -0.42216218 0.6811422 0.89804673
-0.006050442 -0.03804842 -0.0056368303 1.6039569e-07 -0.02519076 0.0014472335 -1.459799e-12 0.0023347032
-1.8332254e-05 -0.026495598 4.82093e-05 -0.018774647 -0.024355393 -0.036372714 -0.0010577389 -0.019559573
-0.010948312 0.041663334 -0.014094714 5.8284375e-05 -0.0076434854 1.1160101e-06 -0.050002005 -0.0004949296
0.012732945 0.14925258 -0.90453935 -0.80644715 -0.0036044768 0.029078405 -0.018019198 4.913834e-06
0.18540509 -0.041985244 -0.44006777 -0.5599335 -0.00039015032 0.13241817 0.54173 0.7782359
0.055801198 0.25839618 0.5355767 0.54188085 -0.0018324642 0.06308916 0.40105006 0.7518861
-0.0039046211 -3.1661263e-19 -6.060828e-05 8.261171e-19 0.41787896 0.33701786 -0.6325196 -0.021675106
0.0399145 0.09477256 -0.38539794 -0.67408 0.34328791 -0.30021438 0.03741026 -0.6413815
0.16426861 0.26280165 -0.06298244 -0.68515766 0.059119906 0.36443228 -0.27795786 -0.72328454
-0.022066597 -1.3047328e-05 -0.0026590864 0.0038356064 -0.04162271 0.05898946 0.08954554 -4.881237e-07
0.3681943 0.36668265 0.2090247 0.036224406 0.31849098 -0.2207547 -0.4134202 0.15023363
-0.05070049 -7.876415e-07 2.9715333e-13 0.015083545 0.1423018 0.19187897 -0.6299572 -0.37507138
-0.0053951247 -0.05502834 7.643939e-06 -0.027373355 -0.008642783 -2.9891588e-08 -0.014715509 0.027350454
0.14149722 0.1184619 0.024541391 -0.45265335 -0.02599591 -0.0041297465 0.0018453515 6.3444554e-07
-0.020457083 0.0004297025 -5.301426e-19 -0.047025733 -0.026326548 -2.862472e-18 2.5789553e-15 -1.1505365e-17
0.34203777 -0.095698595 -0.336867 -0.18009314 0.37129804 0.22432566 -0.5431938 0.28472373
-0.04883537 -0.0010919354 9.5401694e-05 3.6684955e-07 2.769612e-18 -0.018854182 -2.1762136e-05 -1.4846671e-17
0.022717688 -0.23453854 -0.70037574 -0.35815227 -9.325774e-07 -2.0043136e-11 0.0004510962 1.3649181e-18
00000000: ef52 953e 0de6 9c3d 2a2e 613e c5ea af3e
00000010: 242c b3bc a46c 9e2c f428 f43c 051c 25a4
00000020: 3087 0fbd a2d2 19a5 7913 723d 6370 003a
00000030: ae6d 95bc a068 0b3d b207 2c23 5434 0aa3
00000040: 1157 1ebc b345 d134 69bb 4033 ce94 6634
00000050: a789 a83e 1e7e 7c3e a6d7 f8bd d039 6ebe
00000060: b9b0 07bc 126e a2b7 2ea1 d3b6 720d 263d
00000070: 7e8f 7fb3 b518 d524 3674 a3bc 3df2 1c2b
00000080: cce3 0dbb 5d5a 8ab2 72ab 7f3b 7d22 f237
00000090: 910b 993e 2177 51be 4e71 3cbf 557d babe
000000a0: f739 e63e ae0e 81be 5859 c63d 54df 1bbf
000000b0: 8b51 07bb b928 fe34 1f42 acbc ab91 82b7
000000c0: aa1b 153b 308e 923e 3ac6 713f 2c1e 0a3f
000000d0: 4784 0c3d 2569 6dbe 107c 33be 020d 40be
000000e0: 2ee9 e53d 3a29 0bbe 37f9 67be 2b3e b03e
000000f0: 9f69 c0bc 6425 14bb 6fc6 9e30 9039 a025
00000100: 4bb4 2dbc 8bd8 0fb2 6c08 b53c 631f e3a2
00000110: e3cd e9bb 674f 803e 46e9 393f 21dd 963e
00000120: 3908 c3bd 12d2 68b9 7a04 053e e9b3 6b3d
00000130: 11f2 ec3c d60d 683d 739e 18bf 3f00 953d
00000140: b62d 8c3e 6b56 843e 3044 a1be 574f e13d
00000150: 8055 d8b7 af60 6bbc 04b6 6139 fcc3 6abc
00000160: ec39 96b8 60d6 b325 1e8c c83b b4b0 b724
00000170: 1764 76bc 1048 f1bc 8e94 2cbd 23d1 71bb
00000180: 0f0b bc3e 2567 a03e 8091 08be 27e3 5fbe
00000190: e26f a53e b9fb 163e b6b2 99bd c5a2 c33d
000001a0: e357 c13c d004 393e 04e2 9cbe d6cd 46bf
000001b0: 1a06 483a a425 d8be 565f 2e3f 64e6 653f
000001c0: c942 c6bb a9d8 1bbd 29b5 b8bb 3b39 2c34
000001d0: da5c cebc 19b1 bd3a cd72 cdab d201 193b
000001e0: 37c8 99b7 4c0d d9bc 5734 4a38 4acd 99bc
000001f0: f684 c7bc 8efb 14bd d4a3 8aba 663b a0bc
00000200: 8c60 33bc 2ca7 2a3d 84ed 66bc 5f76 7438
00000210: 3476 fabb d1c9 9535 e7ce 4cbd 2abe 01ba
00000220: d89d 503c abd5 183e e48f 67bf 5273 4ebf
00000230: 1639 6cbb d635 ee3c ff9c 93bc 83e1 a436
00000240: d5da 3d3e b8f8 2bbd 9050 e1be cd57 0fbf
00000250: 178d ccb9 a198 073e d1ae 0a3f 783a 473f
00000260: cc8f 643d 814c 843e 8e1b 093f b4b8 0a3f
00000270: 4c2f f0ba e434 813d 6f56 cd3e 9c7b 403f
00000280: ace4 7fbb 26e5 baa0 a535 7eb8 a5d3 7321
00000290: 3bf4 d53e 9b8d ac3e ceec 21bf fe8f b1bc
000002a0: 637d 233d 1e18 c23d e152 c5be 8290 2cbf
000002b0: 6fc3 af3e b3b5 99be 803b 193d 9431 24bf
000002c0: 0836 283e f08d 863e f0fc 80bd 7e66 2fbf
000002d0: b727 723d de96 ba3e 7e50 8ebe 2d29 39bf
000002e0: 02c5 b4bc d9e5 5ab7 1144 2ebb cc5e 7b3b
000002f0: 937c 2abd ef9e 713d a763 b73d 9b07 03b5
00000300: f783 bc3e d4bd bb3e 920a 563e 0b60 143d
00000310: 4011 a33e 850d 62be d0ab d3be d8d6 193e
00000320: 51ab 4fbd 506e 53b5 4f48 a72a f920 773c
00000330: 90b7 113e ec7b 443e e044 21bf 5b09 c0be
00000340: 96c9 b0bb 6665 61bd 783e 0037 163e e0bc
00000350: 769a 0dbc 2662 00b3 5119 71bc 0f0e e03c
00000360: a6e4 103e 279c f23d 070b c93c 2ec2 e7be
00000370: 60f5 d4bc d352 87bb b9df f13a c44e 2a35
00000380: 9d95 a7bc b149 e139 7178 1ca1 0e9e 40bd
00000390: c6aa d7bc 9136 53a2 54d5 3927 8d3c 54a3
000003a0: 931f af3e a0fd c3bd d579 acbe 566a 38be
000003b0: c71a be3e a0b5 653e c00e 0bbf 4fc7 913e
000003c0: 9907 48bd 461f 8fba 6512 c838 6bf3 c434
000003d0: 7e5c 4c22 1674 9abc d58d b6b7 b6ef 88a3
000003e0: 721a ba3c df2a 70be d34b 33bf bc5f b7be
000003f0: 3b56 7ab5 214d b0ad 1b81 ec39 266d c921

edge_encoder.0.bias f4 [128]
0.31442815 2.5554254e-09 -0.034716196 -0.00084443885 -0.040325023 -0.08839995 2.3288952e-05 -0.0007202268
0.00019939394 0.14478543 -0.03598314 -0.0014075801 -0.21515296 -0.06276787 0.29457608 0.0035793548
-1.4844603e-05 0.29056317 0.19885902 -0.34855178 0.045639955 -0.014348719 -0.016490567 0.03477096
-0.14837633 0.33725983 -0.11375665 0.3449254 0.0051351464 -3.485172e-16 -1.081712e-16 0.046342824
0.012455755 1.5270844e-18 0.12182182 -1.4979555e-05 0.32888886 0.02375131 -0.011057109 0.113757186
-0.0002369478 -0.3553417 0.045716155 -0.20725466 -0.3178284 -0.4901255 0.031547803 0.005854803
0.044072848 0.2890323 1.1483998e-07 -0.45381314 -0.016254842 -0.00030190562 -0.5125535 -6.7149735e-17
-1.6971394e-16 -0.053365856 0.25349727 -0.41854605 0.0488338 -0.0003340188 0.4146466 -0.009783686
-0.2537481 -2.9234768e-09 -0.19859877 -0.21262787 0.0074167736 -0.11527861 0.006313454 6.968989e-17
0.34079838 0.17395268 -0.48050785 0.009550559 -0.0046431706 1.6625159e-17 -4.249413e-09 -0.074620746
0.0013981226 -0.4527515 0.14756733 -0.010615418 -0.46671084 0.22937602 0.027668618 0.00042328943
-0.1447593 0.042299543 0.026325861 0.17437847 0.39003643 -0.0010261053 -0.0018263478 -0.019004911
-0.14335611 -0.4558638 0.23875342 -0.0040841363 -0.42080978 -0.008687733 -0.040784225 0.10949812
0.027829329 -0.35854182 -0.1757973 -0.05887856 0.20315349 0.008279011 0.1539935 -0.051401395
-0.020793471 0.37384397 0.10477212 1.3745653e-06 0.31337908 -0.12052932 4.2583968e-05 -0.12297118
-0.1129013 -0.040767565 0.04007439 0.1359214 -0.29278085 -0.39734277 2.3650402e-06 0.13915408
00000000: bafc a03e 859b 2f31 9232 0ebd 555d 5dba
00000010: da2b 25bd 080b b5bd a55c c337 9acd 3cba
00000020: 6714 5139 a242 143e 0f63 13bd 8d7e b8ba
00000030: 0f51 5cbe 718c 80bd add2 963e 9c93 6a3b
00000040: 160d 79b7 b2c4 943e b3a1 4b3e 6175 b2be
00000050: f6f0 3a3d e416 6bbc 3a17 87bc ff6b 0e3d
00000060: f7ef 17be 52ad ac3e 3ff9 e8bd 109a b03e
00000070: bb44 a83b 10e8 c8a5 026d f9a4 f9d1 3d3d
00000080: 3913 4c3c 9e5b e121 b87d f93d b350 7bb7
00000090: 1f64 a83e 1b92 c23c e028 35bc 87f9 e83d
000000a0: 3175 78b9 59ef b5be dd40 3b3d 913a 54be
000000b0: 67ba a2be bbf1 fabe 4538 013d a6d9 bf3b
000000c0: bb85 343d 0bfc 933e f29d f633 325a e8be
000000d0: e028 85bc 1649 9eb9 b536 03bf 35d6 9aa4
000000e0: b7aa 43a5 2896 5abd 65ca 813e ab4b d6be
000000f0: f305 483d 3f1f afb9 8f4c d43e c14b 20bc
00000100: 45eb 81be 59e6 48b1 7a5d 4bbe 1fbb 59be
00000110: 6808 f33b 3117 ecbd 17e1 ce3b a6b1 a024
00000120: 207d ae3e a720 323e 2005 f6be f379 1c3c
00000130: bd25 98bb 0c57 9923 3b02 92b1 c3d2 98bd
00000140: 3641 b73a 0bcf e7be e41b 173e 4aec 2dbc
00000150: b9f4 eebe 8ce1 6a3e 4ca9 e23c f2ec dd39
00000160: c83b 14be 4942 2d3d 55a9 d73c 4590 323e
00000170: dbb2 c73e 617e 86ba 1062 efba 30b0 9bbc
00000180: f2cb 12be fb66 e9be c77b 743e 38d4 85bb
00000190: 6174 d7be fe56 0ebc 5c0d 27bd 8d40 e03d
000001a0: 55fa e33c cb92 b7be 3504 34be a52a 71bd
000001b0: 7807 503e b0a4 073c 79b0 1d3e 458a 52bd
000001c0: 1257 aabc 7a68 bf3e c492 d63d b47d b835
000001d0: 3973 a03e 13d8 f6bd 309c 3238 50d8 fbbd
000001e0: cc38 e7bd e4fb 26bd 0b25 243d fb2e 0b3e
000001f0: 5fe7 95be 8370 cbbe 15b7 1e36 687e 0e3e
